vae_model.pth (torch, 904908 bytes, 18 tensors)

encoder.0.weight f4 [64, 128, 7]
0	0x3c3529bb	0.011057313
1	0xbcf3ed8f	-0.029776363
2	0x3c8d2fd0	0.017234713
3	0x3c142824	0.009042773
4	0x3bd3c252	0.006462374
5	0xbc86d13b	-0.01645719
6	0x3ba4b96f	0.005026988
7	0xbc1eefcc	-0.009700727
8	0x3ce3972e	0.027782049
9	0x3ba1b4b6	0.0049348725
10	0xbc695558	-0.014241539
11	0x3ba5e9cd	0.0050632716
12	0xbd046a2d	-0.03232782
13	0xbc4e9a92	-0.012610095
14	0x3c326266	0.010887718
15	0xbb331ae4	-0.002732926
16	0xbcc8b22f	-0.024499027
17	0xbcb404b1	-0.021974893
18	0xbccfa119	-0.025345372
19	0xbc2691a1	-0.010166557
20	0x3c601429	0.013676682
21	0xbcdfe03d	-0.027328605
22	0x3c80c313	0.015718019
23	0x3c36f6bb	0.011167224
24	0x3cb6c992	0.022312913
25	0xbc8dd8a6	-0.01731522
26	0xbcb63f1f	-0.022246895
27	0xbbda80f8	-0.0066682063
28	0x3cc84db0	0.024451107
29	0xbcdd0cea	-0.026983697
30	0xbc87ebec	-0.016591989
31	0x3cc78ea9	0.024360018
32	0xbc940b23	-0.018071717
33	0xbc5426e6	-0.012948727
34	0xbc992c57	-0.0186979
35	0xbbcb5b51	-0.006205954
36	0xba198836	-0.0005856784
37	0x3d075952	0.033044167
38	0xbbcf2760	-0.0063218325
39	0xbcdf9876	-0.027294379
40	0x3c85c275	0.016328076
41	0xbd05fadc	-0.03270994
42	0xbc926d60	-0.01787442
43	0x3c1305cb	0.008973549
44	0x3bbf823d	0.005844383
45	0xbc63d055	-0.013904651
46	0xbbbc33e5	-0.005743491
47	0xbbb86532	-0.005627298
48	0x3cc2882a	0.023746569
49	0xbba8a1a9	-0.0051462245
50	0x3cc65f1d	0.024215275
51	0xbc8bbb16	-0.017056983
52	0xbc77a17b	-0.015114184
53	0xbc122ef8	-0.008922331
54	0x3cee7147	0.02910675
55	0xbb879cdb	-0.0041385717
56	0x3c083cf2	0.008315312
57	0x3c2be249	0.010490962
58	0xbb9573f6	-0.0045609428
59	0xbca0f15c	-0.01964634
60	0x3c552d9d	0.013011363
61	0x3cb0486c	0.021518908
62	0xbc09101b	-0.008365656
63	0xb8dd50e7	-0.000105531704
64	0x3ce02248	0.027360097
65	0xbbf055df	-0.0073344554
66	0x3c9740c1	0.018463494
67	0x3c835c5a	0.016035248
68	0xbc72e3b1	-0.014824794
69	0x3cca5622	0.024699274
70	0x3c2a836c	0.01040731
71	0x3cafb7d4	0.02144996
72	0x3b97dd21	0.004634515
73	0xbbdafb08	-0.0066827573
74	0x3d0f5fbb	0.035003405
75	0x3cf22085	0.029556522
76	0xbcb037e0	-0.021511018
77	0x3c34c7b1	0.011033938
78	0x3c9216ce	0.01783314
79	0xbc146d09	-0.009059199
80	0xbcba2348	-0.022721902
81	0x3c8e469e	0.017367657
82	0x3c91ef1a	0.017814208
83	0x3b35a2bf	0.0027715412
84	0x3b8f7e4f	0.004379071
85	0xbcf4c5b0	-0.029879421
86	0x3bef4ea3	0.0073030754
87	0x3b6d62c3	0.0036222197
88	0x3c9c9792	0.019115243
89	0xbc194425	-0.009354626
90	0xbc9dd251	-0.019265326
91	0x3bcd1c67	0.0062594893
92	0x3d01fe94	0.031736925
93	0x3ce6e10a	0.028183479
94	0x3d1ea8c3	0.038735162
95	0xbb947313	-0.0045303195
96	0x3b8da7de	0.00432299
97	0xbc3cabe9	-0.011515596
98	0x3ce55000	0.027992249
99	0xbc216e81	-0.009853006
100	0xbc2066ad	-0.009790105
101	0x3ca1dec0	0.019759536
102	0x3cdce331	0.026963802
103	0x3be66cbf	0.0070320065
104	0xbae6f0ed	-0.0017619409
105	0xbcb097a0	-0.021556675
106	0x3c1828e7	0.009287096
107	0x3c3bf063	0.011470887
108	0x3d022649	0.031774793
109	0xbccbd710	-0.024882823
110	0xbbef689b	-0.007306171
111	0x3c98278c	0.018573545
112	0xbca74e47	-0.020423068
113	0xbd03cf85	-0.032180328
114	0xbcbeb7b9	-0.023280965
115	0xbcd2f895	-0.025753299
116	0x3cba0d49	0.022711413
117	0x3b8b23a4	0.004246192
118	0xbcd9450f	-0.026522188
119	0x3bd09d15	0.006366382
120	0xbc10c44d	-0.008835864
121	0x3cb76e76	0.022391539
122	0xbca24e5d	-0.019812757
123	0x3bcf0357	0.006317537
124	0xbbd2d67a	-0.006434259
125	0xbcfec782	-0.031100992
126	0xbcad9b06	-0.021192085
127	0x3cd4029b	0.025880149
128	0xbd06d025	-0.032913346
129	0x3ce429ec	0.027852021
130	0x3c96351f	0.018335877
131	0xbce6bd44	-0.02816642
132	0xbb54b1f4	-0.00324547
133	0x3c35dd12	0.011100071
134	0xbd163904	-0.036675468
135	0x3a5d5cd2	0.0008444312
136	0x3cc5b6b2	0.024134967
137	0xbccdaccb	-0.025106808
138	0xbb635dc3	-0.0034693338
139	0xbc593547	-0.013257331
140	0xbce352d9	-0.027749466
141	0xbc2e0952	-0.010622339
142	0x3cf15264	0.029458232
143	0x3c91a98e	0.017781045
144	0x3cdb554c	0.026774071
145	0xbbe2cf84	-0.0069217104
146	0xbc26e8b5	-0.010187318
147	0x3b4ccb9f	0.0031249297
148	0xbd0e43e3	-0.03473271
149	0xbc3b8a0a	-0.011446485
150	0xbc9406ed	-0.018069709
151	0x3bf5b84d	0.007498777
152	0xbce9abde	-0.028524335
153	0xbca70548	-0.02038826
154	0x3c81faad	0.015866602
155	0x3ba74230	0.0051043257
156	0xbcaef35f	-0.021356283
157	0x3c6cf01a	0.014461542
158	0x3c6ca4de	0.014443604
159	0xbd128e35	-0.03578015
160	0x3c78ae35	0.015178253
161	0xb9701b06	-0.0002289825
162	0xbc7e309f	-0.015514522
163	0xbc52dad3	-0.012869555
164	0xbc60c36e	-0.013718469
165	0x3d3304a9	0.043705616
166	0x3bb80202	0.0056154737
167	0xbbbb414f	-0.0057145725
168	0xbcf96fd1	-0.030448826
169	0xbc96eb27	-0.018422676
170	0x3b9e7249	0.004835401
171	0xbcae63ba	-0.021287788
172	0xbb060bb6	-0.0020453758
173	0xbd2b8281	-0.041872505
174	0xbc983627	-0.01858051
175	0xbc852ac9	-0.016255753
176	0x3bf88b70	0.0075849816
177	0x3ceec78b	0.029147884
178	0xbc9703c1	-0.018434407
179	0x3c00c3e0	0.0078592
180	0xbce314a1	-0.027719798
181	0x3c7628ad	0.015024346
182	0xbc504622	-0.012712033
183	0x3a7d36ce	0.00096593506
184	0xbceb484f	-0.028721003
185	0xbc038cc6	-0.0080291685
186	0xbc67acbe	-0.014140306
187	0xbbabc5b8	-0.005242076
188	0xbc6a70da	-0.0143091325
189	0x3cc63fcd	0.024200344
190	0x3c20b2c3	0.009808245
191	0xbc214b38	-0.009844594
192	0x3c1ed1c6	0.009693569
193	0xbcb4b776	-0.022060137
194	0xbc979717	-0.018504662
195	0x3b7efe68	0.0038908962
196	0x3cacea6c	0.021107875
197	0xbcf02960	-0.029316604
198	0x3b4d3ad5	0.0031315584
199	0xbc8117cf	-0.015758423
200	0x3ccc1a88	0.024914995
201	0xbcdb0529	-0.026735859
202	0x3c55e5ef	0.013055309
203	0xbbf3925a	-0.007433218
204	0x3c77bfe3	0.015121433
205	0x3889789d	6.555135e-05
206	0xbd3da378	-0.046298474
207	0x3be70262	0.0070498446
208	0x3c8fb9bc	0.01754462
209	0xbc490677	-0.012269608
210	0x3c3684f2	0.011140095
211	0x3cb0ae37	0.021567447
212	0xbce897b4	-0.02839265
213	0xbca30ec8	-0.01990451
214	0x3cc9afd8	0.024619982
215	0x3c948b0e	0.018132713
216	0x3be262de	0.0069087585
217	0x3a07a278	0.0005174051
218	0x3c6c9a24	0.014441047
219	0xbb234681	-0.002491385
220	0xbcf168b8	-0.02946888
221	0x3cfcbdd2	0.030852232
222	0x3cbdfce6	0.02319188
223	0x3bf8e130	0.007595204
224	0xbc25f90e	-0.01013018
225	0x3cd0bf15	0.02548174
226	0xbd11343c	-0.035450205
227	0xbccbfd8e	-0.024901178
228	0x3b2d8058	0.0026474204
229	0x3bf5a1fb	0.007496116
230	0xbb52c21c	-0.0032159155
231	0x3c8026e7	0.01564355
232	0x3ca155cc	0.019694231
233	0x3ae22119	0.0017252296
234	0xbc5cdb0e	-0.013479961
235	0x3bf91e73	0.007602507
236	0x3acaffa8	0.0015487568
237	0x3bb18fb0	0.00541874
238	0xba6318e7	-0.00086630735
239	0xbb39d02c	-0.002835284
240	0xbcf84285	-0.030305156
241	0xbc9f04f6	-0.019411545
242	0x3d08bfef	0.033386167
243	0xbb546df9	-0.0032414182
244	0x3ce3db4d	0.027814532
245	0xbcc63171	-0.024193497
246	0xbcd7c5b2	-0.026339386
247	0xbbcb3485	-0.006201329
248	0x3c6e524d	0.014545989
249	0x3c61a33f	0.013771831
250	0xbca88fbb	-0.020576349
251	0xbd01a484	-0.031651035
252	0xbcd5f63c	-0.02611839
253	0x3cc3b4ab	0.02388986
254	0xbcc057e1	-0.023479404
255	0x3ba7db71	0.005122595

encoder.0.bias f4 [64]
0	0xbd1b15b0	-0.03786248
1	0xbc8e9e5b	-0.017409494
2	0x3d0a7fbd	0.033813227
3	0x3ce2a2e8	0.02766557
4	0x3cbe95d7	0.023264809
5	0xbbab542a	-0.005228539
6	0x3c668711	0.014070288
7	0x3cb38a3a	0.021916497
8	0x3b9920ee	0.004673115
9	0x3c521a34	0.01282363
10	0xba2b78ae	-0.0006541115
11	0xbce0c6d6	-0.027438562
12	0xbcb3ad51	-0.02193323
13	0xbd379c32	-0.044826694
14	0x3c4c6427	0.01247505
15	0x3c7012f3	0.014652955
16	0x3d011f50	0.031524003
17	0x3c080cc9	0.0083038295
18	0x3c85fbcf	0.016355423
19	0xbd03a3a5	-0.032138485
20	0xbd16e709	-0.036841426
21	0xbba79418	-0.0051140897
22	0xbbd96eda	-0.006635529
23	0xbbf8f52f	-0.0075975875
24	0xbc347ab8	-0.011015587
25	0xbc954f22	-0.01822621
26	0x3adb7e35	0.0016745987
27	0x3c0be6d7	0.008538923
28	0xbc47c537	-0.012193016
29	0xbc97f7ff	-0.018550871
30	0x3b66ba68	0.0035206322
31	0x3c8b5b3a	0.017011274
32	0x3caf7ba7	0.021421267
33	0xbc9c58ac	-0.01908525
34	0x3c325464	0.010884378
35	0x3ca56b49	0.02019276
36	0x3cad4ba3	0.02115423
37	0x3c2808f2	0.010256039
38	0xbc49bcbb	-0.012313063
39	0x3c7a394b	0.015272449
40	0xbc14b50f	-0.009076371
41	0x3cf240a7	0.029571844
42	0xbd0d6bfa	-0.034526803
43	0xbc2ed7c5	-0.010671561
44	0xba164e10	-0.0005733678
45	0xbcf7a950	-0.030232102
46	0x3be80120	0.0070802122
47	0xbcf078c7	-0.029354466
48	0xbd0f9da9	-0.035062466
49	0xbd098b56	-0.033580147
50	0xbd096384	-0.03354217
51	0x3c0b11b0	0.008488104
52	0xbc44cb36	-0.01201134
53	0xbca976fd	-0.02068662
54	0x3ba9ea55	0.0051854053
55	0xbc927bbd	-0.017881269
56	0xbbd9eaed	-0.00665032
57	0xbc9cd3fc	-0.01914405
58	0x3c2a791e	0.010404853
59	0xbce087f0	-0.02740857
60	0x3cef4751	0.029208811
61	0x3d01b314	0.031664923
62	0xbcaedf75	-0.021346787
63	0x3bd4ee84	0.00649816

encoder.2.weight f4 [64, 64, 7]
0	0x3d286326	0.04111018
1	0xbd0ef24d	-0.034899045
2	0x3c89e263	0.016831582
3	0xbcea1405	-0.028574
4	0xbb85e080	-0.0040856004
5	0x3cf89745	0.030345568
6	0x3bbbd478	0.0057321154
7	0x3ccd9c79	0.025099026
8	0x3cb0213f	0.021500228
9	0xbcfc140a	-0.030771274
10	0x3c09886e	0.008394344
11	0x3cb494d6	0.022043627
12	0xbca13544	-0.01967872
13	0xbc11b869	-0.008894064
14	0xbd0477cd	-0.032340813
15	0x3cdb8e43	0.026801234
16	0x3c44c835	0.012010624
17	0x3c1b53a0	0.009480387
18	0x3d18d1f9	0.03730962
19	0x3cbf47fc	0.023349755
20	0xbcb74db9	-0.022375928
21	0xbc971229	-0.018441277
22	0x3bb45776	0.00550359
23	0xbcf0e923	-0.029408043
24	0x3ced3dbf	0.028960107
25	0xbd45be3a	-0.048277117
26	0xbd55a80d	-0.05216222
27	0xbce7f67b	-0.028315773
28	0xbabcfee7	-0.0014419229
29	0x3d040be6	0.03223791
30	0xbcdf25c8	-0.027239695
31	0xbd272ef5	-0.040816266
32	0x3c05f03a	0.00817495
33	0xbd238171	-0.039918367
34	0xbd002cf7	-0.03129288
35	0xbd344e74	-0.04402013
36	0xbd3d1b15	-0.046168406
37	0x3d4d5502	0.050129898
38	0xbbf8888f	-0.0075846384
39	0x3be376db	0.006941659
40	0x3cd562fd	0.026048178
41	0xbc2909e6	-0.010317301
42	0xbd0580b3	-0.03259344
43	0x3c34e62b	0.011041204
44	0xbc27e64e	-0.01024778
45	0xbd3e08b8	-0.046395034
46	0xbc54d203	-0.012989524
47	0xbd449892	-0.047997065
48	0x3cea466e	0.028598037
49	0xbc4cf0b9	-0.012508565
50	0xbd6261c9	-0.055269036
51	0xbcbe2dc3	-0.02321518
52	0xba815bc3	-0.0009869266
53	0xbd63558b	-0.055501502
54	0xbc6f6d7d	-0.014613506
55	0xbbde6db3	-0.0067879795
56	0xbbc970e7	-0.006147492
57	0xbd16bc4b	-0.036800664
58	0xbcb3a7c1	-0.021930577
59	0xbcce1449	-0.025156157
60	0xbd428b79	-0.047496293
61	0xbcd48bca	-0.025945563
62	0x3c8d7f41	0.017272593
63	0x3d0e4145	0.034730215
64	0x3bcb1b4a	0.0061983215
65	0x3c8db0c3	0.0172962
66	0x3d0e0451	0.034672085
67	0xbcd3420e	-0.025788333
68	0xbccd4bbe	-0.02506053
69	0xbc3581ef	-0.011078342
70	0x3c8b4d3f	0.017004607
71	0x3d144e61	0.03620756
72	0x3cc52728	0.024066523
73	0x3ce53162	0.02797765
74	0xbc83b90b	-0.016079446
75	0x3d285ef5	0.041106183
76	0x3d0d526e	0.03450244
77	0x3a93131c	0.0011220905
78	0xbc75df67	-0.015006877
79	0x3ce1528e	0.027505185
80	0x3d29d73b	0.041465025
81	0x3c4b955b	0.012425746
82	0x3cfa5766	0.030559253
83	0xbc8cba60	-0.017178714
84	0xbd1e68ab	-0.038674038
85	0x3c8e6ae1	0.017384948
86	0xbd146bab	-0.036235493
87	0x3d2380b2	0.039917655
88	0x3c36c163	0.011154505
89	0xbd0eadcc	-0.034833714
90	0xbccf5f7c	-0.025314085
91	0xbcfaec43	-0.030630236
92	0x37877d39	1.6151565e-05
93	0xbc219c49	-0.009863921
94	0xbcd4fbd7	-0.025998993
95	0xbd1fc76e	-0.03900855
96	0x3c00d366	0.007862901
97	0xbba310ff	-0.0049763913
98	0xbcef2821	-0.02919394
99	0x3bd26c5e	0.00642161
100	0xb9864f22	-0.0002561743
101	0x3ba20509	0.004944448
102	0xbcc89ebe	-0.024489757
103	0x3d0d548a	0.03450445
104	0xbcd212bc	-0.025643699
105	0xbcccdec0	-0.02500856
106	0xbcc39dd2	-0.023878966
107	0xbccc5654	-0.024943508
108	0x3d19fa9a	0.037592508
109	0xbc70ed9c	-0.014705088
110	0xbc67123c	-0.0141034685
111	0xbc86e762	-0.016467754
112	0xbce79a0e	-0.028271701
113	0xbd2225f7	-0.039586987
114	0x3d14f986	0.036370777
115	0xbca06e47	-0.019583834
116	0xbcdeb1a7	-0.02718432
117	0xbce2b2d0	-0.027673155
118	0xbd33fdcc	-0.04394321
119	0xbd2f5270	-0.042803228
120	0x3caee65b	0.021350076
121	0x3cf4990c	0.029858135
122	0xbcf20a1c	-0.029545836
123	0xbd1aa941	-0.03775907
124	0xbc95b58f	-0.01827505
125	0xbd1b8083	-0.037964355
126	0x3c9594d5	0.018259445
127	0xbd2afdb8	-0.04174587
128	0x3b8ed02e	0.004358313
129	0xbd233576	-0.039845906
130	0xbbd047ca	-0.006356214
131	0x3b799c69	0.0038087612
132	0xbcde1b2a	-0.027112562
133	0x3d14f481	0.03636599
134	0xbcb55c12	-0.02213863
135	0x3ce495a8	0.027903393
136	0xbd18333d	-0.03715824
137	0xbd1e4ad4	-0.03864558
138	0xbc0aafe3	-0.008464786
139	0xbd2a04c1	-0.04150844
140	0x3bf80b52	0.007569709
141	0xbd5622b2	-0.05227918
142	0x3c87dcbe	0.01658475
143	0x3cb4a5f9	0.022051798
144	0x3c6a4bcd	0.014300299
145	0x3d27d937	0.040978637
146	0xbcd8ffa8	-0.026489094
147	0xbc936762	-0.017993633
148	0xbc984d27	-0.018591477
149	0xbcf7b798	-0.030238912
150	0x3d0460ea	0.032318987
151	0x3d21a9f3	0.039468717
152	0xbca4d91c	-0.020123057
153	0xbc2bd687	-0.010488159
154	0x3c9ed03f	0.019386409
155	0xbd3f3254	-0.046678856
156	0xbd006b48	-0.03135231
157	0xbd0661cc	-0.03280811
158	0xbd2a07ec	-0.04151146
159	0xbd364f27	-0.04450908
160	0xbcbebbbc	-0.023282878
161	0xbd2f49fc	-0.042795166
162	0xbbe75d6a	-0.0070606964
163	0x3d0638f9	0.032769177
164	0xbd257321	-0.040393
165	0x3c86c255	0.016450087
166	0x3d148e48	0.036268502
167	0x3cb5f705	0.022212515
168	0x3d0c8c02	0.03431321
169	0xbd215b5f	-0.03939378
170	0x3d134791	0.035956923
171	0x3c22720a	0.009914884
172	0x3aad9708	0.0013243863
173	0xbcab3cab	-0.020902952
174	0xbcc2d62a	-0.023783762
175	0x39879d3f	0.00025866364
176	0xba8e47f5	-0.0010855185
177	0xbd0e4fc0	-0.034744024
178	0xbc8268cd	-0.015919114
179	0x3c4b98a9	0.012426534
180	0x3c3cdbe7	0.011527038
181	0xbd2791c2	-0.04091049
182	0xbd2c0b68	-0.042003065
183	0xbc63b98c	-0.013899218
184	0xbd268eac	-0.040663406
185	0x3d055b58	0.032557815
186	0xbcad73c6	-0.02117337
187	0x3ce50628	0.027957037
188	0xbd22e735	-0.039771277
189	0xbd56c850	-0.052437127
190	0x3aa415a7	0.001251866
191	0x3cbca82d	0.023029411
192	0xbd3d12a9	-0.046160374
193	0xbd055242	-0.03254915
194	0xbca520a4	-0.020157166
195	0x3ce0be6e	0.027434554
196	0xbd306815	-0.04306801
197	0xbc571d66	-0.013129568
198	0xbc9ab93a	-0.018887151
199	0x3d25ccba	0.040478446
200	0x3cdca29c	0.026933007
201	0xbd3a4a17	-0.045480814
202	0xbd3f0cab	-0.04664294
203	0x3d0f6bea	0.035015024
204	0xbc0d0fc2	-0.008609714
205	0x3d1fa1a8	0.038972527
206	0xbc85aee5	-0.016318748
207	0xbd2459e5	-0.040124793
208	0xbc9e183c	-0.019298665
209	0x3a55b226	0.00081518514
210	0xbd520e64	-0.051283255
211	0xbcead4a4	-0.028665848
212	0x3cfa379c	0.030544095
213	0xbd413cf2	-0.047177263
214	0x3cedf829	0.029048996
215	0xbc9c4f28	-0.019080713
216	0x3cac960e	0.021067645
217	0xbd416e57	-0.04722437
218	0xbcc8c9bc	-0.024510257
219	0xbc3a2ef2	-0.011363732
220	0x3c8b350f	0.016993074
221	0x3c06411d	0.008194235
222	0xbc8ded34	-0.017325021
223	0x3caf1f32	0.02137718
224	0xbbc84725	-0.0061119967
225	0x3c559b67	0.013037539
226	0x3b848f12	0.0040453756
227	0x3d15f40b	0.03660969
228	0xbd380a0e	-0.044931464
229	0x3d333344	0.043750063
230	0x3cd0a9f1	0.02547166
231	0xbbd37e04	-0.006454231
232	0xbd41880d	-0.04724889
233	0xbd2b20d3	-0.04177935
234	0xbc1fb057	-0.009746633
235	0xbb3ae5ab	-0.002851824
236	0x3c915748	0.017741814
237	0xbc9c888e	-0.019108083
238	0xbb9466b9	-0.004528847
239	0x3d21d364	0.03950824
240	0xbd571ebe	-0.052519552
241	0x3ad47fe3	0.001621243
242	0xbc6cee73	-0.014461148
243	0x3d20c101	0.039246563
244	0xbd2700f9	-0.040772412
245	0x3be601b2	0.007019245
246	0x3ce5b062	0.028038207
247	0xbadc22d9	-0.0016795053
248	0xbbe95470	-0.0071206614
249	0x3c208172	0.009796487
250	0xbc6d3cb3	-0.014479804
251	0xbccf1b7f	-0.025281666
252	0x3ced9648	0.029002324
253	0xbb0c837a	-0.002144067
254	0x3c77e93c	0.015131291
255	0xbcdc9310	-0.026925594

encoder.2.bias f4 [64]
0	0xbc8bfe14	-0.017088927
1	0xbc4d7c38	-0.012541823
2	0x3cfc048e	0.03076389
3	0x3c106453	0.008812982
4	0xbd1f1fe2	-0.038848765
5	0x3d29ff8c	0.041503474
6	0xbb8ac6d0	-0.004235126
7	0xbd0555ee	-0.032552652
8	0x3be59131	0.0070058336
9	0xbcb38fa7	-0.021919085
10	0xbd45e002	-0.048309334
11	0x3d399c81	0.04531527
12	0x3d1a1e81	0.037626747
13	0xbce9df87	-0.028548969
14	0xbc76c7a5	-0.015062247
15	0xbcfb04d0	-0.030641943
16	0xbcf46349	-0.0298325
17	0xbd599e8a	-0.05312971
18	0x3c9df16e	0.019280162
19	0xbd0660eb	-0.032807272
20	0x3d224216	0.039613806
21	0xbd0654c4	-0.032795683
22	0x3d212c7b	0.03934906
23	0x3cd9932d	0.026559437
24	0xbd806c13	-0.062706135
25	0xbc595b4e	-0.013266398
26	0xbcc10e52	-0.023566399
27	0x3cee2a32	0.029072855
28	0x3d50a0c2	0.05093456
29	0x3d7c321f	0.061571237
30	0xbc80aabb	-0.01570641
31	0xbd575c4c	-0.052578256
32	0x3a5b0c89	0.0008356055
33	0x3b00178e	0.001954529
34	0xbd062648	-0.03275135
35	0xbd577670	-0.052603185
36	0xbd39bdde	-0.045347087
37	0x3b82f795	0.0039967992
38	0xbd4f33ff	-0.050586697
39	0x3d58eff0	0.052963197
40	0xbcde46b9	-0.027133333
41	0xbd3d7b39	-0.046260092
42	0xbc6805ef	-0.014161571
43	0x3cf536aa	0.029933292
44	0x3d181140	0.037125826
45	0xbca5a2c4	-0.020219214
46	0xbcc67d1a	-0.024229575
47	0x3d176919	0.036965463
48	0xbcbddf67	-0.023177816
49	0xbc15a8fb	-0.009134526
50	0x3d0f76e8	0.035025507
51	0xbcaa8a14	-0.020817794
52	0x3d3c858e	0.046025805
53	0x3d1deba2	0.038554795
54	0xbd4278c5	-0.047478456
55	0x3d7f4683	0.062323105
56	0xbd1b0ae1	-0.03785217
57	0xbc869c8e	-0.016432073
58	0x3b109452	0.0022061062
59	0x3c9099b9	0.017651426
60	0x3d17e12a	0.037079968
61	0x3d47ba93	0.048761915
62	0xbc4ea7dc	-0.012613263
63	0xbc754c56	-0.014971813

encoder.4.weight f4 [32, 64, 7]
0	0xbb389666	-0.0028165816
1	0x3d2b2f76	0.04179331
2	0xbd0d7259	-0.03453288
3	0x3c88baf1	0.016690703
4	0xbcc82ad1	-0.024434479
5	0x3d4ed42d	0.050495315
6	0xbbf57fd6	-0.007492046
7	0xbd2860fb	-0.041108113
8	0xbc6896d2	-0.014196115
9	0x3cf37e1c	0.02972322
10	0x3b89cec4	0.0042055566
11	0xbd1a4e76	-0.037672482
12	0xbd1a915f	-0.037736293
13	0x3c412dc1	0.011790694
14	0xbd1b9184	-0.03798057
15	0x3b4e53e8	0.0031483117
16	0xbc10e70b	-0.008844147
17	0xbc07d181	-0.008289696
18	0xbc28243a	-0.010262543
19	0x3ccd9e1f	0.025099812
20	0xbc5bf93e	-0.013426123
21	0x3d15a51a	0.036534406
22	0x3c01af68	0.007915355
23	0xbd14f22f	-0.036363777
24	0xbd3a84d4	-0.04553683
25	0xbcacd819	-0.021099137
26	0xbd189396	-0.037250124
27	0x3d1cfda7	0.03832784
28	0x3a80caba	0.0009826042
29	0xbbad0c0b	-0.0052809766
30	0xbd535930	-0.051598728
31	0xbaa38c4b	-0.0012477724
32	0x3a0e55ad	0.0005429637
33	0xbd4485bc	-0.0479791
34	0x3d063959	0.032769535
35	0x3d5813b9	0.052753184
36	0x3c146d24	0.009059224
37	0xbcd1f94f	-0.025631575
38	0xbd14dc0a	-0.036342658
39	0xbbc84797	-0.00611205
40	0x3d2cc200	0.0421772
41	0xbcb7f49c	-0.022455506
42	0x3ca7eacb	0.0204977
43	0xba589a0b	-0.00082627
44	0x3cc94c77	0.024572594
45	0xbcfc3353	-0.030786192
46	0x3c326cbc	0.010890182
47	0x3cc54a58	0.024083301
48	0x3d34b0c9	0.044113908
49	0x3a31cb37	0.00067822955
50	0x3c26aee0	0.010173529
51	0x3a3ca038	0.00071955053
52	0x3ce4888d	0.027897144
53	0xbca5c098	-0.020233437
54	0xbd9e8cad	-0.077416755
55	0xbd7df87c	-0.06200455
56	0xbd0ad878	-0.033897847
57	0x3c0f0b36	0.0087307
58	0x3cd2b5c4	0.025721438
59	0x3d05db2e	0.03267973
60	0xbb89b75a	-0.0042027654
61	0x3cfac85b	0.030613115
62	0xbd52977b	-0.051413994
63	0xbd448909	-0.04798225
64	0x3d55f1a8	0.052232414
65	0x3cab5eff	0.020919321
66	0x3caea346	0.02131809
67	0x3b7eeab4	0.0038897218
68	0xbd1aed0c	-0.03782372
69	0xbd5cc591	-0.05389935
70	0xbcf216f7	-0.029551966
71	0xbce23b4e	-0.02761617
72	0x3c8af347	0.016961707
73	0x3b36dc4c	0.0027902303
74	0x3d0d464d	0.034490872
75	0x3ce722b7	0.028214796
76	0xbd1d63df	-0.038425323
77	0xbcdf4282	-0.027253393
78	0xbd4bb17f	-0.04972982
79	0xbc8fc0e7	-0.017548038
80	0xbc21864e	-0.009858681
81	0x3cefc963	0.029270833
82	0x3cf8a23b	0.030350795
83	0x3d36ebad	0.04465835
84	0xbd37ee2b	-0.04490487
85	0xbd061f88	-0.032744914
86	0xbce0f373	-0.027459836
87	0x3d28ad22	0.041180737
88	0xbd0ce332	-0.034396358
89	0x3cb85084	0.02249933
90	0xbcf9648a	-0.030443449
91	0xbce452fb	-0.0278716
92	0x3d154fab	0.03645293
93	0xbd266d45	-0.04063155
94	0x3cd8c9bc	0.026463382
95	0xbb00aab0	-0.0019632988
96	0x3c0fc0f2	0.008774029
97	0x3b1c0bb3	0.0023810684
98	0xbd14b1b2	-0.036302276
99	0x3d0ca60b	0.03433804
100	0xbcdc2c0e	-0.026876476
101	0xbd2a2313	-0.041537356
102	0xbd0a1a63	-0.03371657
103	0xbcd6fac6	-0.026242625
104	0xbd0a74e9	-0.0338029
105	0xbd024b41	-0.03181005
106	0xbd449e8e	-0.048002772
107	0x3c9b11e8	0.018929437
108	0xbd3d7b15	-0.04625996
109	0x3bbfb9bc	0.0058509987
110	0xbceaf4f9	-0.028681265
111	0x3cbab062	0.022789184
112	0xbcf4845f	-0.029848276
113	0x3c032475	0.0080042975
114	0xbd2f43dc	-0.042789325
115	0xbd02c3a1	-0.031924848
116	0xbccc34ea	-0.024927575
117	0xbd1b3ab2	-0.037897773
118	0x3d35c913	0.044381212
119	0x3d108ad8	0.03528866
120	0x3c2df072	0.010616409
121	0x3d20217c	0.039094433
122	0xbcc7e02d	-0.024398888
123	0xbd3fe179	-0.046845887
124	0x3c36c435	0.011155178
125	0xbd212277	-0.03933951
126	0x3cccdd93	0.025007999
127	0xbd1138ad	-0.03545444
128	0xbd3a53c7	-0.045490053
129	0xbbb8a831	-0.0056352844
130	0xbd47c1b3	-0.04876871
131	0x3a8c2edf	0.0010695121
132	0x3d043566	0.032277487
133	0xbc6e4649	-0.0145431245
134	0xbc962cea	-0.018331964
135	0x3d243464	0.040089026
136	0xbd1cbead	-0.03826778
137	0xbcaa5a64	-0.020795055
138	0xbcb3ada2	-0.02193338
139	0x3cb7b652	0.022425804
140	0xbcb6383c	-0.022243612
141	0xbc97e363	-0.018541044
142	0xbc518a4a	-0.012789318
143	0x3d02d5a6	0.031942032
144	0x3c16948c	0.00919069
145	0xbcc1d760	-0.02366227
146	0xbcb8d337	-0.022561653
147	0x3d31af4f	0.043380078
148	0xba8687f4	-0.0010263906
149	0xbc23d287	-0.009998924
150	0x3c955753	0.018230116
151	0xbd10e929	-0.03537861
152	0xbd0ea804	-0.0348282
153	0x3ba4dca8	0.005031187
154	0x3d12c183	0.03582908
155	0x3d28968e	0.041159205
156	0x3d24f498	0.040272325
157	0x3d283dcc	0.04107456
158	0xbcf8ae60	-0.030356586
159	0x3a7a9e9d	0.00095603784
160	0x3cba4563	0.022738164
161	0xbbc2bf42	-0.00594321
162	0xbd1122bc	-0.035433516
163	0x3d259e3b	0.040434103
164	0x3ca1677c	0.019702666
165	0x3d0f7bc6	0.03503015
166	0x3d0128d8	0.031533092
167	0x3c7150a3	0.014728698
168	0xbcbc77b5	-0.0230063
169	0x3cf35727	0.029704643
170	0xbc51987a	-0.012792701
171	0x3cc4205c	0.023941211
172	0x3cb7d6ab	0.022441229
173	0xbc954072	-0.018219206
174	0x3ca88420	0.020570815
175	0xbb8b71a4	-0.0042554904
176	0x3c83a598	0.016070172
177	0xb9ee8ac5	-0.0004549829
178	0x3ce37b7c	0.027768843
179	0xbc15f2ab	-0.009152095
180	0xbd2832e5	-0.04106416
181	0xbb23e7e0	-0.0025010034
182	0xbccf00ce	-0.025268938
183	0xbd206e2c	-0.039167568
184	0xbd2aca6b	-0.041696947
185	0x3d0a5f87	0.03378251
186	0xbc6ae936	-0.014337828
187	0xbcb0609e	-0.021530446
188	0xbc441813	-0.01196863
189	0xbd38b71c	-0.0450965
190	0x3d160f1e	0.03663551
191	0x3b7a2d1c	0.003817386
192	0xbbeb47e1	-0.0071801995
193	0x3d549645	0.05190112
194	0x3c2f5a02	0.010702612
195	0x3d101da2	0.03518451
196	0xbbdb0ded	-0.0066850097
197	0xbd1f5be8	-0.038906008
198	0x3cfd26c3	0.030902272
199	0xbd1a6621	-0.037695054
200	0x3c97f6be	0.018550273
201	0x3ba0fc49	0.0049128872
202	0xbcd4f764	-0.025996871
203	0xbcacbf52	-0.021087322
204	0x3c83bdce	0.016081717
205	0xbc0c9351	-0.008580045
206	0xbd5cd2d0	-0.053911984
207	0xbd441cb2	-0.04787893
208	0xbc6e5ce8	-0.014548518
209	0x3d1a0510	0.037602484
210	0x399c159e	0.00029770745
211	0x3c9eab3e	0.019368764
212	0x3d0f66f4	0.035010293
213	0xbc967479	-0.018366085
214	0x3d276807	0.040870693
215	0x3cf2b0f7	0.029625399
216	0x3c825e79	0.015914189
217	0x3cf5ca34	0.030003645
218	0xbcfe9417	-0.031076474
219	0xbd1d0e47	-0.038343694
220	0x3b0aafd6	0.0021161935
221	0x3cbbc014	0.022918738
222	0xbcd9c5cd	-0.026583577
223	0xbc2c7ec8	-0.010528274
224	0xbd184b1d	-0.03718101
225	0xbc85bd8e	-0.016325738
226	0xbd03495f	-0.032052394
227	0xbc0dc778	-0.008653514
228	0x3cf069d1	0.029347332
229	0xbc8500f8	-0.016235813
230	0x3c23541b	0.009968783
231	0xbd3b05fe	-0.04566001
232	0xbc212bf9	-0.009837144
233	0xbc12b9de	-0.008955447
234	0xbd0d2797	-0.034461584
235	0x3d286106	0.041108154
236	0xbd370b3c	-0.04468845
237	0xbcf766d8	-0.030200407
238	0x3d3141a4	0.04327549
239	0xbd270549	-0.040776525
240	0xbcde2584	-0.027117498
241	0x3d32eb65	0.04368152
242	0xbd0056b4	-0.031332687
243	0x3d226a4b	0.03965215
244	0x3d1ca17f	0.038239952
245	0x3ca2e09d	0.019882495
246	0x3c8771eb	0.016533813
247	0xbbd639e3	-0.0065376624
248	0xbd283178	-0.041062802
249	0x3cd91d3e	0.026503202
250	0xbc302145	-0.01075012
251	0xbcc4a7b6	-0.024005752
252	0xbc3d80d7	-0.011566362
253	0xbc66afdd	-0.014080015
254	0x3ce3065b	0.027712991
255	0xbc826b00	-0.015920162

encoder.4.bias f4 [32]
0	0x3b8aa423	0.0042309924
1	0x3da28379	0.07935233
2	0xbc9b4ba8	-0.018956974
3	0xbc167a96	-0.0091845
4	0x3d7bb868	0.06145516
5	0x3d9614b8	0.073281705
6	0xbc840d19	-0.016119527
7	0x3cda2cee	0.026632752
8	0x3dbefa00	0.093250275
9	0x3c968316	0.018373054
10	0x3d3a6654	0.045507744
11	0x3c8c8ccd	0.017156983
12	0x3d70c671	0.058783
13	0x3cbb1c99	0.022840785
14	0x3d501020	0.050796628
15	0xbb24e4ae	-0.0025160718
16	0x3d89b525	0.06724004
17	0x3d6d6ea0	0.05796683
18	0x3d2b21c6	0.041780256
19	0x3c20539f	0.009785562
20	0x3d916d26	0.071008965
21	0x3d9ae043	0.07562306
22	0xbd016fce	-0.031600766
23	0xbce43b12	-0.027860198
24	0xbd2f5aba	-0.042811133
25	0x3d75c03d	0.059997786
26	0x3d3e0f8c	0.046401545
27	0x3c93283a	0.017963517
28	0x3d2cc3fe	0.0421791
29	0x3c6d6261	0.014488787
30	0xbd2187ec	-0.039436266
31	0xbccd3cd0	-0.025053412

fc_mu.weight f4 [16, 480]
0	0xbc613dc1	-0.013747633
1	0xbca3a336	-0.019975286
2	0x3cbeeb16	0.023305457
3	0x3cba8701	0.022769453
4	0xbd23ae6a	-0.039961256
5	0x3c42e3a0	0.01189509
6	0xbcee5513	-0.0290933
7	0xbd0b7e9b	-0.034056287
8	0x3bc1c2eb	0.0059131286
9	0xbcdde8b2	-0.027088497
10	0x3c850cd0	0.016241461
11	0x3d15c36c	0.036563322
12	0xbc7b2dc9	-0.01533074
13	0xbc6394d3	-0.013890463
14	0xbccff3e7	-0.025384856
15	0xbbd4b360	-0.0064911097
16	0xbd6cc75c	-0.05780731
17	0xbd44a5ec	-0.048009798
18	0x3c9431ac	0.018090092
19	0x3c42ccdb	0.011889662
20	0x3cb7927d	0.022408718
21	0xbc275470	-0.010213003
22	0xbce14d74	-0.027502753
23	0xbcbd9988	-0.023144498
24	0xbc9b33a0	-0.018945515
25	0xbc946675	-0.018115262
26	0x3cd1b8f0	0.02560088
27	0xbcf5bbbb	-0.029996743
28	0xbd49344b	-0.049122136
29	0xbcb0d7ca	-0.021587271
30	0xbccb694f	-0.024830488
31	0x3cbd7df3	0.023131346
32	0x3d07bb57	0.033137646
33	0x3d077b4d	0.033076573
34	0xbcd9b54b	-0.026575705
35	0x3ba91f9c	0.005161239
36	0xbc13d786	-0.009023553
37	0xbce22177	-0.027603848
38	0x3c00bb8d	0.007857216
39	0x3cf3d73e	0.029765721
40	0xbb96290d	-0.0045825304
41	0xbc8dc3b3	-0.01730523
42	0xbca70cc8	-0.020391837
43	0xbcd01725	-0.025401661
44	0x3bac3a41	0.005255968
45	0x3d0ceb7a	0.034404255
46	0xbd15b336	-0.036547862
47	0xbd0b2aaf	-0.033976253
48	0x3c5cadc8	0.013469167
49	0x3c2bad6a	0.010478357
50	0xbd21ad45	-0.039471883
51	0xbd10e36d	-0.03537314
52	0xbcebd4fb	-0.02878808
53	0xbc448bc9	-0.011996218
54	0x3c90b440	0.017664075
55	0x3d03efb2	0.032211013
56	0x3d38a54a	0.045079507
57	0x3c87b3d7	0.016565247
58	0xbc126654	-0.00893553
59	0x3ca4477b	0.020053616
60	0xbd10dda4	-0.035367623
61	0x3cf55161	0.029946031
62	0x3c97b1b3	0.01851735
63	0x3d033b59	0.03203902
64	0xbd34b6ec	-0.04411976
65	0x3cd63a08	0.026150718
66	0x3ba0192a	0.0048858123
67	0x3cb8c092	0.022552762
68	0xbcf0110d	-0.029305005
69	0x3c88926d	0.016671384
70	0x3cbc2511	0.022966893
71	0x3d0381a8	0.03210607
72	0x3d0c5d8a	0.034268893
73	0xbcac96b0	-0.021067947
74	0xbcc02e9c	-0.023459725
75	0x3d3e6d6e	0.04649108
76	0xbb05fdb0	-0.00204454
77	0x3c2bf57c	0.01049554
78	0xbcced3bf	-0.025247453
79	0x3b22f9d3	0.0024868145
80	0x3c40c339	0.011765295
81	0xbccee84a	-0.025257248
82	0xbd267696	-0.040640436
83	0xbd28101f	-0.041031
84	0x3d064b42	0.032786615
85	0x3d17afe4	0.037032977
86	0x3c86b75a	0.01644485
87	0x3c4ef407	0.012631423
88	0x3ad274a4	0.001605649
89	0x3bc94d86	0.0061432747
90	0xbcc94941	-0.024571063
91	0xbb860d40	-0.004090935
92	0x3c16c3d3	0.009201962
93	0x3ce88ee5	0.02838845
94	0x3cd76b58	0.026296303
95	0x3af53597	0.0018707988
96	0x3d1b0dd2	0.037854977
97	0x3cf659ac	0.030072056
98	0xbd247170	-0.040147245
99	0xbd061bba	-0.032741286
100	0x3cd4af38	0.025962457
101	0xbce025e5	-0.02736182
102	0xbc0386e4	-0.008027766
103	0x3ccefc1c	0.0252667
104	0xbcaa944b	-0.020822665
105	0xbd09c736	-0.033637248
106	0x3b86ca50	0.004113473
107	0xbd2ecaa6	-0.04267373
108	0xbc22a177	-0.0099261915
109	0x3d051e69	0.032499705
110	0x3ccc0030	0.024902433
111	0xbcb9eb87	-0.022695316
112	0xbceeac1d	-0.029134804
113	0xbd15429b	-0.036440473
114	0x3c373221	0.011181385
115	0x3d38614b	0.04501466
116	0xbcad75c6	-0.021174323
117	0x3d2cad19	0.042157266
118	0xbb60498a	-0.003422352
119	0xbd03c0ec	-0.032166407
120	0xbbc6b69c	-0.006064249
121	0x3d1fab2b	0.038981598
122	0x3be87d20	0.007094994
123	0x3d0693c8	0.03285578
124	0x3d1d9536	0.038472377
125	0xbd208ac2	-0.03919483
126	0x3d1c89df	0.03821742
127	0xbcb6da3d	-0.022320861
128	0x3cf953ba	0.030435432
129	0xbb1f1950	-0.0024276562
130	0x3d040c15	0.032238085
131	0x3a99ee56	0.0011744003
132	0xbc8eaff6	-0.01741789
133	0xbccd27a6	-0.02504332
134	0xbcd4fe48	-0.026000157
135	0xbcd0300a	-0.025413532
136	0xbb8246ff	-0.0039757486
137	0xbd23c499	-0.039982412
138	0xbd09fe45	-0.033689756
139	0xbcbd0d18	-0.023077533
140	0x3c47d428	0.012196578
141	0x3d254d59	0.040356968
142	0x3c438079	0.011932486
143	0xbd1059fc	-0.035242066
144	0xbcc42326	-0.023942541
145	0xbd2161d1	-0.039399926
146	0x3ce679e3	0.028134292
147	0x3d1493b9	0.03627369
148	0xbc59cafa	-0.013293022
149	0xbc082d03	-0.008311513
150	0xbd5daebf	-0.05412173
151	0xb9cd43a2	-0.00039151037
152	0x3bda81c9	0.0066683036
153	0xbd480e40	-0.048841715
154	0x3c9c6ce6	0.019094896
155	0xbbc88c99	-0.006120276
156	0xbc10e6d6	-0.008844098
157	0xbd0fbe58	-0.035093635
158	0x3c79d80f	0.015249266
159	0xbcc4e5a8	-0.02403529
160	0xbc806b20	-0.015676081
161	0xbc681291	-0.014164583
162	0x3ca57f1f	0.020202218
163	0xbd2fa972	-0.042886205
164	0xbbf1c3c7	-0.007378075
165	0x3cce0ec9	0.025153534
166	0x3cb4e63c	0.02208244
167	0xbcf5c250	-0.029999882
168	0x3c99b84e	0.018764641
169	0xbc44aff6	-0.012004843
170	0xbd05fabd	-0.032709826
171	0x3bc5ceda	0.0060366215
172	0x3c00f50b	0.007870923
173	0xbd343589	-0.043996368
174	0xbd30af41	-0.043135885
175	0xbd0adccb	-0.03390197
176	0x3b90f229	0.004423399
177	0x3ba7843d	0.0051121996
178	0x3d0908e4	0.033455744
179	0x3cc7d233	0.024392223
180	0x3cde7cec	0.027159177
181	0x3cb662c1	0.022263886
182	0x3d079fd9	0.033111427
183	0x3d256c0e	0.040386252
184	0xbd34a3ce	-0.04410153
185	0xbd233995	-0.039849836
186	0x3d11c94d	0.035592366
187	0x3c14d929	0.009084978
188	0xbc32a5ee	-0.0109038185
189	0x3c2e8049	0.010650703
190	0x3c6bbe4e	0.014388634
191	0xbd1ef8bd	-0.038811434
192	0xbc2da5c4	-0.010598604
193	0x39dc7f7e	0.0004205666
194	0xbb22b51e	-0.0024827193
195	0x3c5b5602	0.013387205
196	0xbcea7d4e	-0.028624203
197	0xbd1e2543	-0.038609754
198	0x3d027777	0.03185221
199	0xbba89d28	-0.0051456876
200	0x3c350771	0.011049137
201	0x3d2753cd	0.040851403
202	0xbce5b82e	-0.028041925
203	0x3ca74282	0.020417456
204	0xbd27ebf0	-0.040996492
205	0xbd2f28e5	-0.04276361
206	0xbcb4c5e8	-0.022067025
207	0xbd14bb7b	-0.036311608
208	0x3cdec6b2	0.027194355
209	0xbba3024b	-0.0049746386
210	0xbbe0d466	-0.0068612574
211	0x3d0dbeb6	0.034605704
212	0x3d19cee2	0.037550814
213	0xbd2c43ff	-0.042057034
214	0xbc657b85	-0.0140065
215	0x3d3da0f5	0.04629608
216	0x3ced57ee	0.028972592
217	0x3d0b34b7	0.03398582
218	0x3c6023a4	0.013680372
219	0xbd045425	-0.03230681
220	0x3cc07eeb	0.02349802
221	0x3cba0649	0.022708075
222	0xbc375a63	-0.0111909835
223	0xbd03494a	-0.032052316
224	0xbbd001ec	-0.0063478854
225	0x3d121df6	0.035673104
226	0x3c691337	0.014225773
227	0xbcb9375f	-0.02260941
228	0xbbefaa36	-0.007313992
229	0xbce518cd	-0.027965927
230	0x3cdd25db	0.02699559
231	0x3ca5184a	0.020153183
232	0x3cf64b57	0.030065222
233	0xbcc7242d	-0.024309242
234	0x3c2ae65d	0.010430899
235	0xbccff1b6	-0.025383811
236	0x3d0ff7cd	0.03514843
237	0x3cedd41b	0.029031804
238	0xbd2a92d2	-0.041643925
239	0xbbea2b5b	-0.0071462817
240	0x3d257cb9	0.040402148
241	0xbb8f5f58	-0.0043753795
242	0x3d2d3ac1	0.04229236
243	0xbc9fdd18	-0.019514605
244	0xbb9a7de3	-0.004714714
245	0xbc4a3ef4	-0.012344111
246	0xbc67c96b	-0.014147143
247	0xbc2cbe49	-0.010543414
248	0x3d28ca41	0.04120851
249	0xbcb7b158	-0.022423431
250	0xbbefa0b1	-0.007312857
251	0xbd2bc864	-0.041939154
252	0xbcaecd8b	-0.021338245
253	0x3a6be7d7	0.00089990854
254	0x3d1386c5	0.036017198
255	0x3c9fb292	0.019494329

fc_mu.bias f4 [16]
0	0xbd6aa3d1	-0.057285134
1	0x3ba0a224	0.004902141
2	0xbd152197	-0.036408987
3	0x3db9ac0b	0.09066018
4	0xbd905942	-0.070482746
5	0x3c2a2846	0.0103855785
6	0xbc3ff859	-0.011716926
7	0xbe00c878	-0.12576473
8	0x3d6b13fa	0.057392098
9	0x3de2c005	0.11071781
10	0xbd3507bd	-0.044196833
11	0x3db42adc	0.08797237
12	0xbd8f5328	-0.06998283
13	0x3c465376	0.01210486
14	0xbd814c6b	-0.06313404
15	0xbda28688	-0.07935816

fc_log_var.weight f4 [16, 480]
0	0xbce2463e	-0.027621385
1	0xbc8be49e	-0.017076787
2	0xbc00a079	-0.00785076
3	0xbcbbf616	-0.022944491
4	0x3c9528dc	0.01820796
5	0x3b3f47f1	0.0029187168
6	0x3cea2d13	0.028585946
7	0x3b885f12	0.004161724
8	0x3b902fa4	0.0044002105
9	0x3c83afb1	0.016074987
10	0x3b48eef5	0.0030660008
11	0x3cbdc5fd	0.023165697
12	0xbc052537	-0.0081265485
13	0xbd5673e3	-0.052356612
14	0x3aaed705	0.0013339227
15	0xbdc15247	-0.09439521
16	0xbd1755a7	-0.03694692
17	0xbd8e3e97	-0.06945532
18	0xbdb66b87	-0.08907228
19	0xbd1fc212	-0.03900344
20	0xbda5da94	-0.08098331
21	0xbdcc9699	-0.09989662
22	0xbda7d8d6	-0.08195655
23	0xbd439c08	-0.047756225
24	0xbd98b9e6	-0.07457332
25	0xbdb7a6a5	-0.08967332
26	0xbdcffcf4	-0.10155669
27	0xbd95c260	-0.07312465
28	0xbdaa6dfe	-0.083217606
29	0xbde9ddfb	-0.114192925
30	0x3d29aef6	0.04142662
31	0xbd3ae76c	-0.045630857
32	0xbcfef218	-0.031121299
33	0x3d44c9c5	0.048043985
34	0x3d116460	0.035496116
35	0xbca4199c	-0.020031743
36	0xbd25e3bd	-0.04050039
37	0x3d085790	0.03328663
38	0xbd5956e3	-0.053061377
39	0x3af1d206	0.0018449433
40	0x3c0a9e82	0.008460643
41	0xbd3d186a	-0.04616586
42	0xbd271137	-0.0407879
43	0x3d1e51f2	0.038652368
44	0xbd19dc48	-0.037563592
45	0x3c981219	0.018563317
46	0xb9c96109	-0.00038410004
47	0x3cf51b0b	0.029920122
48	0x3b027521	0.001990624
49	0xbcd89dcd	-0.026442433
50	0x3cd71c36	0.02625857
51	0xbc992d1b	-0.018698266
52	0x3d0a61af	0.033784565
53	0xbd0c82a9	-0.034304295
54	0x3cacd645	0.021098265
55	0xbb2e5a90	-0.0026604272
56	0x3ce94f0e	0.028480079
57	0x3ccdb47a	0.025110472
58	0x3b1f80a7	0.0024338157
59	0xbc85a356	-0.016313236
60	0xbd5c3e8f	-0.053770598
61	0xbc14f6d0	-0.009092048
62	0xbd37dae1	-0.044886474
63	0xbc2069bf	-0.009790837
64	0x3cf517a1	0.029918494
65	0xbc746934	-0.0149176605
66	0x3c199c20	0.009375602
67	0xbd1f29f8	-0.038858384
68	0xbd2bf921	-0.041985635
69	0xbb215f8f	-0.0024623608
70	0x3c3068ac	0.010767143
71	0x3bb44249	0.005501066
72	0x3c012b21	0.007883818
73	0xbd460684	-0.048346058
74	0x3c5b92fc	0.013401743
75	0x3c2b466d	0.0104538025
76	0x3c861726	0.01636846
77	0xbc55249f	-0.013009219
78	0x3c07e0b5	0.00829332
79	0xbc03bfe7	-0.008041359
80	0x3d1d1385	0.038348693
81	0xbbfb9bb0	-0.0076784715
82	0x3c9c3485	0.019068012
83	0x3cf39eb4	0.029738761
84	0x3ce52da6	0.027975868
85	0xbd373478	-0.044727772
86	0xbceaa4a4	-0.02864296
87	0xbd3e83d9	-0.04651246
88	0xbd39aed6	-0.045332752
89	0xbd0ec961	-0.03486002
90	0xbcc9a0dc	-0.024612837
91	0x3d1ea5cd	0.03873234
92	0xbd0e8560	-0.034795165
93	0x3d04195f	0.03225076
94	0x3cbe6b77	0.023244603
95	0x3cf82edc	0.030295782
96	0x3b18aeac	0.0023297472
97	0x3cc532a4	0.024071999
98	0xbcb64d08	-0.022253528
99	0x3c23c090	0.009994641
100	0x3ba015fc	0.0048854332
101	0xbcc0c332	-0.023530576
102	0xbc569a2b	-0.01309828
103	0xbd140f0c	-0.036147162
104	0x3c5b47f8	0.013383858
105	0xbd349688	-0.04408887
106	0x3cf4c534	0.02987919
107	0xbc93e5f8	-0.018053994
108	0x3caa9e98	0.020827577
109	0xbd21ec81	-0.03953219
110	0xbd1cad8a	-0.038251437
111	0xbc594a36	-0.013262322
112	0xbb573668	-0.0032838825
113	0x3cecb776	0.028896075
114	0xbceae334	-0.028672792
115	0x3d3dac72	0.046307035
116	0x3a53b476	0.0008075902
117	0x3bed9386	0.007250252
118	0xbd3193be	-0.04335379
119	0xbcec2d1a	-0.0288301
120	0xbd1dd3b8	-0.03853199
121	0xbd07118b	-0.032975715
122	0xbd6ad4ea	-0.057331957
123	0xbc826872	-0.015918944
124	0x3ccfb56f	0.025355069
125	0xbcd2ca98	-0.02573137
126	0x3cf87355	0.030328432
127	0x3ccf7840	0.025325894
128	0x3c567d0f	0.01309134
129	0xbd15929b	-0.036516767
130	0xbcf6faa0	-0.030148804
131	0xbd0347c9	-0.03205088
132	0xbd2d9d80	-0.04238653
133	0xbd225684	-0.03963329
134	0xbc36dc6d	-0.011160952
135	0x3c9867e4	0.018604226
136	0xbd359d83	-0.044339668
137	0xbaff6816	-0.0019485976
138	0x3d197bf8	0.03747174
139	0x3c53c491	0.012925283
140	0xbd58ac22	-0.052898534
141	0xbd498f90	-0.049209177
142	0xbd30debe	-0.043181174
143	0xbb9d994b	-0.0048095337
144	0x3c714ebe	0.014728246
145	0x3c2c27f2	0.010507571
146	0x3c3d5e71	0.011558161
147	0x3d0404b6	0.032231055
148	0xbd2c74d0	-0.04210359
149	0x3ca3bb62	0.019986812
150	0xbd79556a	-0.060872473
151	0xbd5022e3	-0.05081452
152	0xbd04d80a	-0.032432593
153	0xbdeb586e	-0.11491476
154	0xbd09169c	-0.033468828
155	0xbd40a596	-0.047032915
156	0xbdb243f6	-0.08704369
157	0xbdb1a748	-0.086744845
158	0xbdaa9b91	-0.08330453
159	0xbd4db985	-0.050225753
160	0xbd23f125	-0.040024895
161	0xbd56d7aa	-0.052451767
162	0xbd680cde	-0.056652896
163	0xbdc4ad8e	-0.096034154
164	0xbdd49d04	-0.10381511
165	0xbc5218cc	-0.012823295
166	0x3ccedce9	0.025251823
167	0x3ca86869	0.0205576
168	0xbcfa9976	-0.030590754
169	0xbc7124ef	-0.014718278
170	0xbc5b6171	-0.013389931
171	0xbd10a8a3	-0.035317075
172	0x3c294184	0.010330562
173	0x3d2474a3	0.040150296
174	0xbc9c6b8c	-0.019094251
175	0x3d1639b9	0.036676142
176	0xbc896da7	-0.01677592
177	0xbd0c57a8	-0.034263283
178	0x3c2f1244	0.010685507
179	0x3b66c372	0.003521171
180	0x3cf01fc2	0.029312018
181	0xbd1948cc	-0.03742294
182	0xbbd74f2d	-0.006570718
183	0xbc341319	-0.010990881
184	0xbca571d6	-0.020195883
185	0x3ac22fba	0.0014815249
186	0xbd05f4dd	-0.032704223
187	0xbcfcba6e	-0.030850615
188	0xbd581ca1	-0.052761678
189	0xbd20d4f9	-0.039265607
190	0xbca1e285	-0.019761333
191	0xbc01b379	-0.007916325
192	0x3d04cce1	0.03242195
193	0xbcea9519	-0.028635548
194	0xbd2d4a67	-0.042307284
195	0xbbe14175	-0.006874258
196	0xbd30963e	-0.043112032
197	0xbc95ca33	-0.018284893
198	0x3c05b49e	0.008160738
199	0xbd196547	-0.0374501
200	0x3bc28f31	0.00593748
201	0x3b22e2b6	0.0024854369
202	0xbd232668	-0.03983155
203	0x3b58dab8	0.003308935
204	0xbd3865bc	-0.045018896
205	0xbbf69f0a	-0.007526283
206	0x3d0de05c	0.034637794
207	0xbd0bb68f	-0.03410965
208	0x3d0a1ecd	0.03372078
209	0x3c8650c3	0.016395932
210	0xbd0cfe0c	-0.034421965
211	0xbd816238	-0.06317562
212	0xbd3a5426	-0.045490406
213	0xbd6f3664	-0.05840148
214	0xbd35785c	-0.044304237
215	0xbd4c686a	-0.049904265
216	0xbd712a8e	-0.058878474
217	0xbcc6409b	-0.024200728
218	0x3c8f705b	0.01750963
219	0x3b31f0fc	0.0027151695
220	0xbd3df9bc	-0.046380743
221	0xbd31267a	-0.043249585
222	0xbd22f63b	-0.039785605
223	0x3cba2765	0.022723863
224	0xbd5bd724	-0.05367197
225	0x3c02953a	0.007970149
226	0x3d23dc6d	0.040005136
227	0xbb2f6671	-0.002676394
228	0x3d3bed14	0.045880392
229	0x39df0155	0.00042534867
230	0xbd227b95	-0.03966864
231	0x3c99a55e	0.018755611
232	0x3d07d31a	0.033160307
233	0xbc810c2c	-0.015752874
234	0x3d0983a8	0.033572823
235	0x3d144d9d	0.03620683
236	0x3c95acb4	0.018270828
237	0xbb84b279	-0.004049596
238	0xbd0a57ae	-0.033775024
239	0xbc86b4ce	-0.016443636
240	0xbd0d774b	-0.034537595
241	0x3ca5543d	0.02018177
242	0x3c1de70b	0.0096376045
243	0xbcebef8b	-0.028800746
244	0xbcebdae8	-0.028790906
245	0x3c831ef0	0.016005963
246	0xbd27f18e	-0.04100185
247	0x3c73624a	0.014854977
248	0x3d060edc	0.032729015
249	0xbb86d36c	-0.004114559
250	0xbd62de59	-0.05538783
251	0xbc0d8655	-0.008637984
252	0xbd1bcce1	-0.038037185
253	0xbd0ba8ce	-0.03409653
254	0xbca968b4	-0.02067981
255	0x3d050ebb	0.03248475

fc_log_var.bias f4 [16]
0	0xbd5fbe9c	-0.05462514
1	0xbd90283e	-0.070389256
2	0xbbc763d7	-0.0060849
3	0xbc829d70	-0.015944213
4	0xbd3f68b7	-0.046730723
5	0xbc8a1276	-0.016854506
6	0xbd5b0032	-0.053466983
7	0xbcb14e40	-0.021643758
8	0xbd5fe1a4	-0.054658547
9	0xbd2bc54c	-0.041936204
10	0x3c8749f8	0.016514763
11	0xbc526653	-0.012841779
12	0xbc8da502	-0.017290596
13	0x3b6166bc	0.003439351
14	0xbcffd1d9	-0.031227993
15	0xbdab1d1c	-0.083551615

decoder_input.weight f4 [480, 16]
0	0xbdbdf04a	-0.09274347
1	0x3e0e9918	0.13925588
2	0x3d4ef9cb	0.05053119
3	0xbe24c1d4	-0.16089565
4	0xbe1064fd	-0.14101024
5	0xbe0a9d82	-0.13536647
6	0xbce8fef5	-0.028441885
7	0xbe78fe48	-0.2431575
8	0xbe140a3c	-0.14457029
9	0x3dc3bc41	0.09557391
10	0xbd122428	-0.035679013
11	0xbe74e8f0	-0.23916984
12	0xbe50bd28	-0.20384657
13	0xbcb65327	-0.022256447
14	0xbcff2a4c	-0.031148098
15	0xbde413c6	-0.11136584
16	0x3df0738e	0.1174079
17	0xbe4ca6f9	-0.1998557
18	0xbe5cae75	-0.21550925
19	0x3c6a9619	0.014318013
20	0xbd566bbd	-0.05234884
21	0xbe4a8970	-0.19778991
22	0xbdf50a6f	-0.11964881
23	0xbb229787	-0.0024809556
24	0x3c4a4024	0.012344394
25	0xbe0002c7	-0.1250106
26	0xbdca1673	-0.09867563
27	0xbd8f54eb	-0.06998619
28	0x3dd9a1f3	0.106265925
29	0xbc150ca0	-0.009097248
30	0x3dba7631	0.091045745
31	0xbde294af	-0.110635154
32	0xbe280319	-0.16407432
33	0x3e77222e	0.24134132
34	0xbe31e8ee	-0.17374012
35	0x3d30f1d1	0.043199364
36	0x3e93fbf6	0.28903168
37	0x3e13d829	0.14437927
38	0xbc1378ee	-0.009001
39	0xbd6cc615	-0.057806093
40	0x3c1f94e1	0.009740085
41	0x3e2f0ead	0.17095442
42	0x3db21aa7	0.0869649
43	0xbe1a3026	-0.1505743
44	0xbe533e06	-0.20629129
45	0xbd900c90	-0.07033646
46	0xbe9ef692	-0.31047493
47	0xbdb6d434	-0.08927193
48	0xbd14327f	-0.03618097
49	0x3c3ae58f	0.01140727
50	0xbe23d9d8	-0.1600107
51	0x3ce80f76	0.028327685
52	0x3e5e69db	0.21720068
53	0x3df256b4	0.118329436
54	0xbdbaa5d6	-0.09113662
55	0x3e0a54b2	0.13508871
56	0xbe7ce3fb	-0.24696343
57	0xbe301509	-0.17195524
58	0xbe2c86de	-0.16848323
59	0x3e096d56	0.13420615
60	0x3e903644	0.281664
61	0x3cdb4492	0.026766095
62	0xbdac0541	-0.083994396
63	0x3c8a9c68	0.016920283
64	0xbce33dc9	-0.027739422
65	0x3e64849e	0.22316214
66	0x3e2abbfa	0.1667327
67	0xbe069ccf	-0.13145755
68	0xbba59f69	-0.0050544036
69	0x3c846a92	0.016164098
70	0xbbb43949	-0.005499993
71	0x3e155da6	0.14586505
72	0x3e234809	0.15945448
73	0xbd323b20	-0.043513417
74	0xbe1e1c11	-0.15440394
75	0xbe6f0426	-0.23341426
76	0x3cdcfa5d	0.026974851
77	0xbe2d72aa	-0.16938272
78	0xbdd4130c	-0.103551954
79	0xbd7406ce	-0.059576802
80	0x3e6858ed	0.22690172
81	0xbdda9f01	-0.10674859
82	0x3d1d8247	0.03845432
83	0xbde00fef	-0.10940539
84	0x3d915a0d	0.07097254
85	0x3dd92364	0.10602453
86	0x3df75290	0.120762944
87	0x3e6d3e93	0.23168401
88	0xbe348908	-0.17630398
89	0x3e268a3e	0.16263673
90	0x3dec2ef9	0.11532397
91	0x3e32ae03	0.17449193
92	0x3e4648e2	0.1936374
93	0xbdd37b39	-0.10326237
94	0x3deacbff	0.114646904
95	0x3e440a48	0.19144547
96	0xbe285466	-0.16438445
97	0xbe643114	-0.22284347
98	0xbdf7ed69	-0.12105829
99	0x3df940d4	0.12170568
100	0xbe1ab7eb	-0.15109222
101	0x3ca70341	0.020387294
102	0xbd524838	-0.051338404
103	0x3e41605c	0.18884414
104	0x3e553aee	0.20823261
105	0xbe642a58	-0.22281778
106	0xbe28693a	-0.16446391
107	0x3db97520	0.09055543
108	0x3da151ef	0.07876956
109	0x3d2a6a60	0.041605353
110	0x3dfc5922	0.12321688
111	0x3dc903f9	0.09815211
112	0x3e7142bb	0.23560612
113	0x3e583a5f	0.21116017
114	0x3dfabbba	0.12242837
115	0xbd1e27dd	-0.038612235
116	0xbe981b92	-0.29708534
117	0x3e81b89e	0.25336164
118	0xbdf5f0d9	-0.12008829
119	0xbe1e5ca7	-0.15465032
120	0x3e83b10e	0.2572102
121	0xbe1a033e	-0.150403
122	0x3e2e34c8	0.17012322
123	0xbe3ab9c2	-0.18234923
124	0xbe2f34e3	-0.17110018
125	0x3e41ce63	0.18926387
126	0x3d43a5f3	0.047765683
127	0x3df37b88	0.11888796
128	0x3e3d14cf	0.18464969
129	0x3dbd08ae	0.09230171
130	0xbdde5561	-0.108561285
131	0x3dc46511	0.095895894
132	0xbe36ecc9	-0.17863764
133	0x3d932924	0.07185581
134	0xbe699da2	-0.22814038
135	0x3da1b0d8	0.078950584
136	0x3e3bc5cc	0.18337172
137	0x3d05a780	0.032630444
138	0x3d0a6e2a	0.033796467
139	0x3e6b7a74	0.22995931
140	0x3cbff7eb	0.023433646
141	0x3e41c466	0.18922576
142	0x3c65361d	0.013989952
143	0xbe533fdd	-0.2062983
144	0x3e64ed3f	0.22356127
145	0xbe53dee7	-0.20690499
146	0x3e75452f	0.23952173
147	0xbe58852a	-0.21144548
148	0xbe612bcd	-0.21989365
149	0x3e6fa498	0.23402631
150	0xbbbe0528	-0.0057989545
151	0xbe01b0b8	-0.12665069
152	0x3e2dab4c	0.16959876
153	0x3e1309f4	0.14359266
154	0xbcc7187a	-0.024303664
155	0x3e437ced	0.19090624
156	0xbe4ddeb8	-0.20104492
157	0x3def361a	0.11680241
158	0x3e9b76eb	0.30364165
159	0x3bf0f30b	0.0073531917
160	0xbe4665aa	-0.1937472
161	0x3dcfa955	0.101397194
162	0xbe343f03	-0.17602162
163	0x3d1c799e	0.03820192
164	0xbe6ec4af	-0.23317216
165	0x3e183e0c	0.14867419
166	0x3db13a84	0.08653739
167	0x3ca8aee7	0.020591212
168	0xbdd558fa	-0.104173616
169	0x3e745191	0.2385924
170	0x3dda85db	0.10670062
171	0x3e19e011	0.15026881
172	0x3d7db6de	0.061941974
173	0xbe8b70ba	-0.2723444
174	0x3b98a63e	0.0046584895
175	0xbe8805b8	-0.26566863
176	0xbd66cf0c	-0.0563498
177	0xbde0a171	-0.109682925
178	0xbd9900ae	-0.07470833
179	0xbe0e4f09	-0.13897337
180	0x3dd9ad97	0.10628813
181	0x3ddb8054	0.10717836
182	0xbe46b1a3	-0.194037
183	0xbe5fb375	-0.21845801
184	0x3e2af28b	0.16694085
185	0x3e0962d3	0.13416605
186	0x3de9ca76	0.114155695
187	0x3dcbf573	0.09958925
188	0xbd56bfdd	-0.05242907
189	0x3e4b254a	0.19838443
190	0x3e348000	0.17626953
191	0xbd3a8235	-0.04553433
192	0x3d613a38	0.054987162
193	0x3c862b36	0.016378026
194	0xbce8f97e	-0.02843928
195	0x3d9da1ad	0.07696853
196	0xbe026617	-0.12734257
197	0xbb86e49c	-0.004116608
198	0x3e3ac84d	0.18240471
199	0x3dafbc64	0.085808545
200	0xbe44e0e4	-0.19226414
201	0x3d14fba4	0.036372796
202	0xbc2a3345	-0.0103882
203	0xbd93d5a4	-0.07218483
204	0xbe77108a	-0.24127403
205	0xbe198f77	-0.14996134
206	0xbdd5e294	-0.10443607
207	0x3e1eda5d	0.15512986
208	0x3e0e297a	0.1388301
209	0x3e66a09c	0.22522205
210	0x3d959b73	0.0730504
211	0xbe77ffa2	-0.2421861
212	0x3e33d739	0.1756257
213	0xbe55c6de	-0.20876643
214	0xbdd198df	-0.10234236
215	0xbe2c7682	-0.16842082
216	0xbe6ce690	-0.23134828
217	0x3e2d3bb7	0.1691731
218	0xbd1031f5	-0.035203893
219	0xbe627ba6	-0.2211748
220	0xbd867100	-0.06564522
221	0xbe5978a1	-0.21237423
222	0xbccde9f4	-0.025135972
223	0x3dcdbe49	0.1004606
224	0x3dfa5a5c	0.12224266
225	0x3c75b902	0.014997723
226	0xbe1c6dd0	-0.15276265
227	0x3e211926	0.1573225
228	0xbeb3bff9	-0.351074
229	0x3e542850	0.20718503
230	0x3c8f9168	0.01752539
231	0xbe33e89d	-0.17569204
232	0x3da9680e	0.082718
233	0x3e7e3e71	0.24828507
234	0xbd36b002	-0.044601448
235	0x3d14dfd7	0.036346283
236	0xbe175ffc	-0.14782709
237	0xbdc40e47	-0.09573036
238	0x3c08f11a	0.008358264
239	0xbe8e19a2	-0.2775393
240	0x3cb87d52	0.022520695
241	0x3e8f6552	0.2800699
242	0xbdf40762	-0.11915471
243	0x3e26dc1e	0.16294906
244	0xbe196ff3	-0.14984111
245	0x3e4e129e	0.2012429
246	0xbe88cd5a	-0.2671917
247	0xbe8e549c	-0.27798927
248	0x3c6dee6c	0.014522176
249	0x3ea23aca	0.31685477
250	0x3db2a9e0	0.08723807
251	0xbdd22006	-0.10260014
252	0xbe56099a	-0.209021
253	0x3d977a18	0.073963344
254	0xbe4a45f4	-0.19753247
255	0xbd8fb959	-0.07017774
