vae_model.pth (torch, 858700 bytes, 18 tensors)

encoder.0.weight f4 [64, 128, 7]
0	0xbbf28abc	-0.0074017923
1	0x3c49475b	0.012285079
2	0xbc97b9e2	-0.018521253
3	0x3b91825e	0.00444059
4	0xbd4788b7	-0.048714366
5	0xbc85e7b5	-0.016345838
6	0xbcbb0818	-0.022831008
7	0xbd21b851	-0.03948242
8	0x3ba1e832	0.00494101
9	0xbc9f7607	-0.01946546
10	0xbd80efb8	-0.06295723
11	0xbcae6642	-0.021288995
12	0xbd37f434	-0.044910625
13	0xbc804fcf	-0.015663056
14	0xbd072ca4	-0.033001557
15	0x3c884b7d	0.016637558
16	0xbbdef25d	-0.0068037943
17	0x3cc17985	0.023617515
18	0x3c9c8eab	0.019110998
19	0x3ca5abd2	0.020223532
20	0x3c69bab2	0.014265703
21	0xbcc13add	-0.023587639
22	0x3a910ade	0.0011065861
23	0xbd153d09	-0.03643516
24	0xbcf25aad	-0.029584253
25	0xbc78ecaa	-0.015193144
26	0xbc3bfb43	-0.01147348
27	0xbb6ac833	-0.0035824894
28	0x3b8ec633	0.0043571233
29	0xbd096ba6	-0.033549927
30	0x3bb5e16e	0.005550555
31	0xbaa19b5c	-0.0012329626
32	0x3bc8cda9	0.006128032
33	0xbc6fb5e8	-0.014630772
34	0xbccfbf34	-0.025359727
35	0xbc8af94d	-0.016964579
36	0x3c4bfcc5	0.012450402
37	0xbc96fea9	-0.018431978
38	0xbc97fd00	-0.018553257
39	0xbc90c7e8	-0.017673448
40	0xbcdca55d	-0.02693432
41	0xbc81347f	-0.015772102
42	0x3c8a5ed5	0.016890923
43	0xbca0d09a	-0.019630719
44	0xbc8cbb59	-0.017179178
45	0xbccec3d2	-0.025239859
46	0xbbaad343	-0.0052131726
47	0xbd3f0925	-0.04663958
48	0xbc3c174b	-0.011480163
49	0x3c5e7fd6	0.013580283
50	0xbce55d33	-0.027998542
51	0x3c3a3867	0.011365986
52	0xbc48c6f8	-0.012254469
53	0xbd09a07a	-0.033600308
54	0xbd20e040	-0.03927636
55	0x3c987b19	0.018613385
56	0xbd260c96	-0.040539347
57	0xbce3cd8a	-0.02780797
58	0xbc87235d	-0.016496355
59	0x3b8a08c4	0.0042124707
60	0xbd4d9d8a	-0.05019907
61	0xbd4178f7	-0.0472345
62	0x3c5dc266	0.013535118
63	0x3b56cacd	0.0032774687
64	0xbd2eb84d	-0.04265623
65	0x3c424812	0.011858003
66	0xbc2d62b5	-0.010582616
67	0x3c4710ba	0.012149984
68	0xbbf0717e	-0.007337748
69	0x3c126163	0.008934352
70	0xbb3da013	-0.0028934523
71	0x3bfbda13	0.0076859086
72	0xbd2613f2	-0.040546365
73	0xbd4a5bcf	-0.04940396
74	0xbca0bb55	-0.019620577
75	0xbd064365	-0.032779116
76	0xbbb88071	-0.005630546
77	0xbb8beafe	-0.0042699566
78	0xbceebfee	-0.029144254
79	0x3aa380e0	0.0012474321
80	0x3b22226c	0.0024739755
81	0xbc89d4ad	-0.016825045
82	0xbbe92e1d	-0.007116093
83	0xbd35a1ec	-0.044343874
84	0xbd17c481	-0.037052635
85	0x3aaecca1	0.0013336131
86	0xbc50696a	-0.012720445
87	0xbcc82474	-0.024431445
88	0xbcbb4775	-0.022861222
89	0xbcdfdc7d	-0.027326817
90	0xbd468d31	-0.048474494
91	0xbd2daca4	-0.04240097
92	0xbd3d01e2	-0.046144374
93	0xbce9ed5f	-0.02855557
94	0xbcaa7dd9	-0.020811962
95	0xbc4c2fd2	-0.012462573
96	0xbd3733dd	-0.044727195
97	0xbb3009ce	-0.0026861313
98	0x3ca41212	0.020028148
99	0x3bd6e257	0.0065577435
100	0xbd0529cc	-0.032510564
101	0xbccb99b5	-0.024853567
102	0xbd0afead	-0.033934284
103	0xbd1ec345	-0.038760442
104	0xbcab52cc	-0.020913504
105	0xbcd8e40c	-0.026475929
106	0xbcca1a30	-0.02467069
107	0xbbf81342	-0.007570655
108	0xbc519116	-0.012790939
109	0xbcce2aa0	-0.02516681
110	0xbc72faee	-0.014830334
111	0xbccced48	-0.025015488
112	0x3c397f5c	0.011321869
113	0xbb4df26d	-0.0031425015
114	0xbd374f15	-0.044753153
115	0xbcc2cd88	-0.023779646
116	0xbcbfd970	-0.023419112
117	0xbd887389	-0.066626616
118	0x39e8d708	0.000444107
119	0xbc0b4854	-0.008501131
120	0xbd6100df	-0.05493247
121	0xbd5d0794	-0.053962305
122	0xbd8a786d	-0.06761251
123	0xbd9443bb	-0.07239481
124	0xbd6ed31d	-0.058306802
125	0xbcb9b6f5	-0.022670249
126	0xbc230452	-0.0099497605
127	0xbce9f89d	-0.02856093
128	0xbd18e6ef	-0.03732961
129	0xbc0a7c2c	-0.008452456
130	0xbd5e6201	-0.054292683
131	0xbd432892	-0.047646113
132	0xbd4432f0	-0.04790014
133	0xbd3482eb	-0.044070166
134	0xbb935e70	-0.004497342
135	0xbd31bedb	-0.043394905
136	0xbc6511c7	-0.013981289
137	0xbc9e0dbe	-0.019293662
138	0xbd3ff8c8	-0.046868116
139	0xbd3c38b4	-0.045952514
140	0x3c86e0c3	0.016464597
141	0xbc98adf4	-0.018637635
142	0xbd39682a	-0.045265354
143	0xbbf9b8d0	-0.0076209083
144	0xbc5543e6	-0.0130166765
145	0xbd4b121e	-0.049577825
146	0xbc6a8476	-0.014313808
147	0x39f60692	0.00046925672
148	0xbce2e0c4	-0.027695067
149	0xbd0de1dc	-0.034639224
150	0xbd5ff35d	-0.05467545
151	0xbbfbf8df	-0.00768958
152	0xb9970fc9	-0.00028812725
153	0xbd0df193	-0.03465421
154	0x3c4f1b7b	0.012640829
155	0xbd1a6135	-0.03769036
156	0x3aaae770	0.0013038944
157	0xbc4dc3dd	-0.0125589045
158	0xbd4abd90	-0.049497187
159	0xbd4df1b2	-0.050279327
160	0x3c14876c	0.00906549
161	0x39ddcc14	0.00042304455
162	0xbbbdc067	-0.0057907584
163	0xbd31d886	-0.043419383
164	0xbc06b83b	-0.008222635
165	0xbd2bde0f	-0.04195982
166	0xbc9e180c	-0.019298576
167	0x3c4f2331	0.012642668
168	0xbc1175e3	-0.008878204
169	0x3c10318f	0.008800878
170	0xbcb0d376	-0.021585207
171	0x3c83d5a1	0.016093077
172	0xbc880757	-0.016605062
173	0x3cda49e3	0.02664656
174	0x3cbb73c2	0.022882346
175	0x3c2fb169	0.01072345
176	0xbc4e8715	-0.012605448
177	0x3be303b0	0.00692793
178	0x3cbabf59	0.02279632
179	0xbaf63d1e	-0.0018786525
180	0x3a30c394	0.00067430106
181	0xbc4e128a	-0.012577662
182	0xbd0f0ebc	-0.03492616
183	0x3c429e00	0.01187849
184	0x3d0112ee	0.031512193
185	0xbcc90e0c	-0.02454283
186	0xbcd1732e	-0.025567617
187	0x3c0ded72	0.008662568
188	0xbcf6cee8	-0.030127957
189	0x3c54ae83	0.01298106
190	0x3cf5b0d7	0.02999155
191	0x3c660c74	0.014041055
192	0x3d1d8fd0	0.03846723
193	0x3cd311b5	0.02576528
194	0x3c61afac	0.013774794
195	0xbc0d7e12	-0.008636015
196	0xbc814c91	-0.01578358
197	0xbc3a728f	-0.011379852
198	0x3d3edfc6	0.046600126
199	0x3c61bcd6	0.013777932
200	0x3d351c37	0.04421636
201	0x3b749fd1	0.0037326703
202	0x3d3e5a43	0.0464728
203	0x3a9b2e12	0.0011839292
204	0x3cc636dc	0.02419608
205	0x3b95596c	0.004557779
206	0x3c8fceb4	0.017554618
207	0x3cb5d422	0.02219588
208	0xbd0c0b11	-0.03419024
209	0xbd0a8f45	-0.03382804
210	0xbce46e66	-0.027884673
211	0xbd3133b4	-0.0432622
212	0xbc9ebdf5	-0.019377688
213	0xbd369077	-0.044571366
214	0xbc90cc2f	-0.017675487
215	0xbd47a124	-0.04873766
216	0xbd384de2	-0.04499615
217	0xbd1588e2	-0.036507495
218	0xbc8851c1	-0.016640546
219	0xbc3d9508	-0.011571176
220	0xbd54660d	-0.051855136
221	0xbce1cd2d	-0.027563656
222	0xbd5dff47	-0.05419853
223	0xbceb1a3d	-0.028699035
224	0xbd0b0423	-0.033939492
225	0xbcf34c43	-0.02969945
226	0xbade2c8c	-0.0016950532
227	0x3b384b8d	0.0028121204
228	0xbd02383c	-0.03179191
229	0xbc8cf008	-0.0172043
230	0xba9d3ef1	-0.0011996907
231	0x3b8062b4	0.0039180163
232	0xbcd6e695	-0.026232997
233	0xbcce4fb9	-0.0251845
234	0xbbc144dc	-0.0058981013
235	0xbb9488ab	-0.0045328937
236	0xbbc59cf7	-0.0060306746
237	0xbd53c0c8	-0.051697522
238	0xbc903b24	-0.017606325
239	0xbd2cae0a	-0.042158164
240	0xbcd26799	-0.025684165
241	0xbc57a7c3	-0.013162556
242	0xbd7f34e0	-0.062306285
243	0xbd33d904	-0.043908134
244	0xbc33558b	-0.010945688
245	0xbd0a6169	-0.033784304
246	0xbd1ee808	-0.0387955
247	0xbc584b68	-0.013201572
248	0xbd28c22c	-0.0412008
249	0xb97744b3	-0.00023581348
250	0xbd1c89e7	-0.03821745
251	0xbd83fcd0	-0.064447045
252	0xbd39942a	-0.045307316
253	0xbd6ee1d2	-0.058320828
254	0xbc68927f	-0.014195084
255	0xbd71b269	-0.059008036

encoder.0.bias f4 [64]
0	0xbcdab68a	-0.02669837
1	0x3c4a8e72	0.012363063
2	0x3c2aa227	0.010414637
3	0xbbe7e928	-0.007077355
4	0xbc874ead	-0.016517008
5	0xbcc02d53	-0.023459112
6	0xbccf4b1b	-0.025304368
7	0x3d0c56d7	0.034262504
8	0x3ce19560	0.027537048
9	0x3c3b4ef0	0.011432394
10	0x3ca1d36a	0.01975413
11	0x3bd0143e	0.0063500693
12	0x3ceaeb2a	0.028676588
13	0xbbc27639	-0.0059345034
14	0x3c0f7731	0.008756445
15	0xbcbd40c5	-0.023102174
16	0x3ca34af9	0.01993321
17	0x3caeb63f	0.021327136
18	0x3b58b8ec	0.0033069206
19	0xbc62dfba	-0.013847286
20	0x3b8280c4	0.003982635
21	0xbb887e8c	-0.004165476
22	0x3bdf6c30	0.006818317
23	0xbca22756	-0.019794147
24	0x3c8ff850	0.01757446
25	0xbcb8a7c7	-0.02254094
26	0x3ac09e9b	0.0014695706
27	0xbc480401	-0.012207986
28	0x3cc33306	0.02382804
29	0x3c298466	0.010346508
30	0x3cfc0467	0.030763818
31	0xbcc50b47	-0.024053229
32	0xbd1aa9cc	-0.037759587
33	0x3b50eaee	0.003187831
34	0xbcad6c5c	-0.021169834
35	0x3c0a32c2	0.008434953
36	0xbc949aa7	-0.01814015
37	0xbcf8307d	-0.030296559
38	0xbafe4a77	-0.0019400854
39	0x3cef0d78	0.029181227
40	0x3ca7f302	0.020501617
41	0xbbd9c3d7	-0.0066456604
42	0x3c05e1b1	0.008171485
43	0x3c64d4fe	0.013966797
44	0x3b9eb629	0.0048434925
45	0xbc54c1a2	-0.012985619
46	0xba3873c2	-0.0007036292
47	0x3b50177f	0.0031752286
48	0xbc3448f2	-0.01100372
49	0xbb821692	-0.0039699757
50	0xbc543a8f	-0.012953415
51	0xbc93e36c	-0.01805278
52	0x3cb17cfd	0.021666044
53	0xbce758f9	-0.028240668
54	0xbc59d176	-0.013294568
55	0x3c188425	0.009308849
56	0xbc7d2dff	-0.015452861
57	0xbc557c76	-0.013030162
58	0x3c254c6e	0.010089023
59	0x3c2b528c	0.010456692
60	0x3bd7dd70	0.0065876767
61	0xbbff86ae	-0.0077980375
62	0xbc4c09ea	-0.012453536
63	0xbd18972a	-0.037253536

encoder.2.weight f4 [64, 64, 7]
0	0xbcdfaed3	-0.027305042
1	0x3cba9708	0.022777095
2	0x3b1fc24b	0.0024377282
3	0xbc9fdfcb	-0.019515892
4	0xbd0c8437	-0.034305777
5	0xbd2e8137	-0.042603698
6	0x3cbe90cd	0.023262406
7	0xbd4d2c12	-0.050090857
8	0xbd027782	-0.031852253
9	0xbd6164e0	-0.055027843
10	0xbc346899	-0.011011266
11	0xbcd827d9	-0.026386188
12	0x3c36b56a	0.011151651
13	0x3cdefa0f	0.027218847
14	0xbd2e3dee	-0.04253953
15	0xbd0215cc	-0.03175907
16	0x3c99d9ae	0.018780556
17	0x3c85107b	0.01624321
18	0x3cba177d	0.022716278
19	0xbcb766c1	-0.022387864
20	0x3d223a57	0.03960642
21	0x3afc9d45	0.0019272944
22	0xbca1a020	-0.019729674
23	0xbca9fa51	-0.020749243
24	0x3b565e06	0.003270985
25	0x3c48978d	0.012243164
26	0x3d19acd3	0.037518334
27	0xbcfcc905	-0.030857572
28	0xbc9954ec	-0.018717252
29	0x3c10dcbf	0.0088416925
30	0x3ca15938	0.019695863
31	0x3c5a30af	0.013317271
32	0xbd360e51	-0.044447247
33	0x3c854679	0.016268956
34	0xbbe33eb4	-0.006934965
35	0x3d37b4ef	0.044850286
36	0x3bc13f3c	0.0058974307
37	0xbd5678b9	-0.052361224
38	0xbd0da93d	-0.034585226
39	0x3ccb5dbb	0.024824968
40	0xbd3fc2c1	-0.04681659
41	0x3c889a8c	0.016675256
42	0x3d08f64c	0.033438012
43	0x3d325a4f	0.043543156
44	0xbce793fa	-0.028268803
45	0xbd3039f6	-0.043024026
46	0x3cc5725a	0.024102379
47	0xbd1c2fd4	-0.03813155
48	0xbaeb08da	-0.0017931715
49	0x3d051f25	0.032500405
50	0xbc7b47f0	-0.015336975
51	0x3c4e3fac	0.012588423
52	0x3d221aa5	0.03957619
53	0xbca65f49	-0.020309107
54	0xbb816350	-0.0039486066
55	0x3b82edc5	0.0039956295
56	0xbcecf166	-0.028923701
57	0x3d1a3fd7	0.03765854
58	0x3cc6fa60	0.02428931
59	0xbca94235	-0.020661453
60	0x3c7305c7	0.01483292
61	0xbcaa45b4	-0.02078519
62	0x3c96f165	0.018425653
63	0xbd075587	-0.03304055
64	0x3cb77ad0	0.022397429
65	0xbcecf89f	-0.028927146
66	0x3cd12a10	0.025532752
67	0xb955df90	-0.00020396546
68	0x3cc700b2	0.024292324
69	0x3b0ed8f9	0.0021796806
70	0xbd560100	-0.052247047
71	0x3925fade	0.00015829082
72	0x3ce149df	0.027501045
73	0x3cc53926	0.024075102
74	0xbb57dc5f	-0.0032937748
75	0x3cb8f487	0.022577537
76	0xbcaeb0e4	-0.021324582
77	0xbce3529c	-0.027749352
78	0xbd0bc8b6	-0.03412696
79	0xbd46749f	-0.048451062
80	0xb9b061c5	-0.0003364218
81	0xbd80fe70	-0.0629853
82	0x3c8f50ef	0.017494647
83	0xbd003fa6	-0.0313107
84	0x3bc88123	0.00611891
85	0xb92c93df	-0.00016458285
86	0xbcc5c473	-0.024141526
87	0x3cf6da60	0.030133426
88	0x3c3aabb7	0.011393479
89	0x3d136672	0.03598637
90	0xbd2d9b1b	-0.04238425
91	0xbd28fb11	-0.04125506
92	0xbd1ab6f9	-0.037772153
93	0x3d186a28	0.037210613
94	0xbcc94b6a	-0.024572093
95	0x3bf59cd4	0.007495502
96	0xbb3b5d2d	-0.0028589473
97	0xbc6e5832	-0.014547395
98	0xbc8e7d21	-0.01739365
99	0xbd39018f	-0.045167502
100	0xbc7fc883	-0.015611771
101	0x3bde9d24	0.006793635
102	0x3ce6a916	0.028156798
103	0xbbb14079	-0.005409297
104	0x3c182c9e	0.009287981
105	0x3d1b2ed5	0.03788646
106	0xbd3c0954	-0.045907333
107	0xbcb64b34	-0.022252657
108	0xbd59a764	-0.05313815
109	0x3cd2f5d9	0.025751995
110	0xbc8bb8e8	-0.017055944
111	0xbccc9d81	-0.024977447
112	0xb98c0845	-0.00026709042
113	0x3c200e24	0.009768996
114	0xbab41847	-0.0013740145
115	0x3ca1be86	0.019744169
116	0xbd5a885c	-0.0533527
117	0xbd112610	-0.03543669
118	0xbd569529	-0.052388344
119	0xbc5d9941	-0.013525308
120	0x3c9e6813	0.019336736
121	0x3c727279	0.0147978
122	0xbcdf2a49	-0.027241843
123	0x3d24e760	0.04025972
124	0x3cac7490	0.021051675
125	0x3c875a2b	0.016522488
126	0xbd1e674e	-0.038672738
127	0xbaf2b94b	-0.0018518356
128	0x3ce7d33f	0.028298972
129	0x3cbab580	0.022791624
130	0xbd710526	-0.0588428
131	0xbd2175d3	-0.039419007
132	0xbc22d0a3	-0.009937438
133	0xbd305543	-0.043050062
134	0xba8b9fe5	-0.0010652511
135	0x3cd72928	0.026264742
136	0x38fe13d9	0.00012115361
137	0xbc8af6b5	-0.016963342
138	0xbd3a846f	-0.045536455
139	0xbb418acd	-0.0029532195
140	0xbc9abb88	-0.01888825
141	0xbbcc5c6d	-0.006236604
142	0x3ca5b97d	0.02023005
143	0x3a76169c	0.00093875243
144	0x3c58068d	0.013185156
145	0x3cec3c0a	0.028837223
146	0x3c9aaafe	0.018880364
147	0xbd538c0e	-0.05164724
148	0xbb54cec6	-0.003247188
149	0xbd092b79	-0.033488724
150	0xb9ff4dfc	-0.00048695493
151	0x3ca87970	0.020565718
152	0x3bcc5971	0.006236248
153	0xbd1c6ff8	-0.03819272
154	0x3b2a24d3	0.002596189
155	0x3d39b1f7	0.045335736
156	0xbd1e2155	-0.038606007
157	0x3d3905c7	0.045171525
158	0x3cbde934	0.023182489
159	0xbd548e95	-0.05189379
160	0x3d058912	0.032601424
161	0x3d097350	0.033557236
162	0xbd312ad2	-0.043253727
163	0xbc35bfae	-0.011093063
164	0xbcdc26fd	-0.02687406
165	0xbb214241	-0.002460614
166	0x3cc77625	0.024348328
167	0x3b89945a	0.004198593
168	0x3cb17f39	0.02166711
169	0xb9b16b7b	-0.0003384015
170	0x3d15573b	0.036460143
171	0xbba8043c	-0.005127458
172	0xbd1b0c5c	-0.037853584
173	0x3a52508b	0.0008022866
174	0xbd391d07	-0.0451937
175	0xbc3392da	-0.010960305
176	0xbbe37469	-0.0069413674
177	0xbbe1433f	-0.0068744714
178	0x3cdfdd64	0.027327247
179	0xbcd4d37c	-0.02597975
180	0xbc374875	-0.011186709
181	0xbca740f5	-0.020416716
182	0xbd5bf266	-0.053697966
183	0xbd070035	-0.03295918
184	0xbcc3612e	-0.02385005
185	0xbc2a0886	-0.010378009
186	0xb9577f7c	-0.0002055149
187	0xbd5937b3	-0.053031635
188	0x3c970d03	0.018438822
189	0x3d290d26	0.041272305
190	0xbb1b4eec	-0.0023698164
191	0xbd8de218	-0.069278896
192	0x3d1a23ad	0.03763168
193	0xbd43679f	-0.047706243
194	0x3c97efdf	0.018546997
195	0x3c2420df	0.010017603
196	0xbc0178b0	-0.007902309
197	0x3c850ec3	0.01624239
198	0x3d34eb94	0.044169977
199	0xbc4ecbc1	-0.012621821
200	0x3a407289	0.0007341286
201	0xbc996946	-0.018726956
202	0x3c49805a	0.012298668
203	0xbd173557	-0.036916103
204	0x3ceb83ed	0.02874943
205	0x3d1229ca	0.035684384
206	0x3cb78da2	0.022406403
207	0x3bfc136d	0.0076927454
208	0xbcb2a135	-0.021805385
209	0xbd56c4c8	-0.05243376
210	0x3c93ed58	0.01805751
211	0xbd22f1ad	-0.03978126
212	0xbca45377	-0.02005933
213	0xbbff0201	-0.0077822213
214	0x3b5ca977	0.0033670345
215	0xbd142cc0	-0.03617549
216	0x3caacce0	0.020849645
217	0x3d252aa4	0.04032387
218	0xbbe0dd44	-0.0068623144
219	0xbd0add55	-0.033902485
220	0xbd059f52	-0.032622643
221	0x3d38f0cf	0.045151528
222	0x3d157fb9	0.03649876
223	0xbd1e0eaf	-0.038588222
224	0x3cae7365	0.021295259
225	0xbcc63ce0	-0.02419895
226	0xbd5cde5a	-0.05392299
227	0xbbf041e7	-0.007332075
228	0xbd500cf2	-0.050793596
229	0xbcbe7dfc	-0.023253433
230	0x3ce80d89	0.028326767
231	0xbb885913	-0.004161009
232	0x3cff30a4	0.031151123
233	0x3c785f34	0.015159417
234	0xbd2fa6a2	-0.042883523
235	0xbcf99f87	-0.030471576
236	0x3c422ff6	0.011852255
237	0x3c024cbd	0.007952866
238	0xbd3fb4b5	-0.046803195
239	0xbd2d3bd3	-0.04229338
240	0x3bd6e6a1	0.006558255
241	0x3a4d80aa	0.0007839302
242	0x3cfefb45	0.031125674
243	0xbd169462	-0.036762603
244	0x3ce01d95	0.027357856
245	0x3d05c807	0.032661464
246	0x3c4a8f02	0.012363197
247	0xbc35436c	-0.011063438
248	0x3ca28311	0.019837888
249	0x3d1c5582	0.038167484
250	0xbc572c35	-0.013133098
251	0xbc99032a	-0.018678267
252	0xbc0a903f	-0.0084572425
253	0xbd4dfe61	-0.050291423
254	0xbd5c25ef	-0.053747114
255	0xbcf33456	-0.029688042

encoder.2.bias f4 [64]
0	0x3d3457e7	0.044029143
1	0x3c2360db	0.009971823
2	0x3d146da8	0.03623739
3	0x3d3d40b7	0.046204295
4	0xbbb5362a	-0.0055301385
5	0x3cc5f6af	0.02416548
6	0x3c095e6a	0.0083843265
7	0x3d3a0b74	0.04542108
8	0x3ced8d89	0.028998153
9	0xbb5c96f4	-0.003365931
10	0x3da36e99	0.07980079
11	0x3bb9bde9	0.005668391
12	0xbc7135eb	-0.014722328
13	0x3d038189	0.032105956
14	0xbc1d39e2	-0.00959632
15	0x3be349c0	0.006936282
16	0x3d53f360	0.051745772
17	0x3d309ea8	0.043120056
18	0x3d085039	0.03327963
19	0x3d6d0cee	0.05787366
20	0x3d52a175	0.05142351
21	0x3d2acd0d	0.041699458
22	0x3d1a1ae4	0.0376233
23	0xbcb02b28	-0.021504954
24	0x3cb0b897	0.021572394
25	0x3ca8a53a	0.020586599
26	0xbd4de24c	-0.05026464
27	0xbd240f23	-0.040053498
28	0x3c79ec9b	0.015254165
29	0xbcbad247	-0.022805346
30	0x3d156bdb	0.036479812
31	0x3cde1c48	0.027113095
32	0xbcca7fae	-0.024719086
33	0x3d118254	0.03552468
34	0xbb8f4e20	-0.004373327
35	0xbd5c6ef3	-0.053816747
36	0x3d737b59	0.059443805
37	0x3cf7b274	0.03023646
38	0x3d2adeff	0.041716572
39	0x380214d9	3.101383e-05
40	0xbd59831c	-0.05310355
41	0x3c1743ad	0.009232444
42	0x3d1b3e52	0.03790123
43	0x3acfeb03	0.0015862886
44	0xbc75c6aa	-0.0150009785
45	0xbcf65759	-0.030070947
46	0xbd7b9d18	-0.061429113
47	0x3c85b7eb	0.01632305
48	0xb9c4cedf	-0.00037538164
49	0x3daf6fdf	0.085662596
50	0x3cba07ee	0.02270886
51	0x3d89cec3	0.0672889
52	0x3c8995d8	0.016795084
53	0xbc936997	-0.017994685
54	0x3cc471f6	0.023980122
55	0xbd5908c3	-0.05298687
56	0x38c9ea9b	9.6281256e-05
57	0x3c92194d	0.01783433
58	0x3c8ba2e7	0.017045451
59	0xbcd3cce8	-0.025854543
60	0xbc56576b	-0.0130823655
61	0xbb93c337	-0.0045093554
62	0xbb85a237	-0.0040781754
63	0xbbd0b273	-0.006368929

encoder.4.weight f4 [32, 64, 7]
0	0x3baf2b1c	0.005345715
1	0x3d51a599	0.051183317
2	0xbb6ca906	-0.0036111488
3	0xbd06ea5f	-0.032938357
4	0xbba4634a	-0.005016719
5	0xbc76c85a	-0.015062416
6	0x3bbb5a69	0.005717565
7	0xbd1bcf1e	-0.03803932
8	0xbd25320d	-0.040330935
9	0xbce1455b	-0.027498892
10	0x3c5c7e4c	0.013457846
11	0xbc40ba8a	-0.011763224
12	0x3d0ad361	0.033892993
13	0xbcbb9707	-0.022899164
14	0x3d155466	0.03645744
15	0x3c6a8fe1	0.01431653
16	0x3acb6171	0.0015516711
17	0x3ca57f1d	0.020202214
18	0x3d2a4327	0.041567948
19	0xbd11392b	-0.03545491
20	0x3c1ccb17	0.009569905
21	0xbbd6e740	-0.006558329
22	0x3ca2f29e	0.01989108
23	0x3d2b73d3	0.041858505
24	0xbca9a773	-0.020709729
25	0xbca70b86	-0.020391237
26	0x3c8ff74a	0.017573971
27	0xbbfd9334	-0.0077384952
28	0xbb64461b	-0.0034831825
29	0x3d36bdf3	0.044614743
30	0x3d0aa910	0.033852637
31	0x3cff1eed	0.031142676
32	0x3d25bc7d	0.04046296
33	0x3ba7a0a3	0.005115585
34	0xbc1a07b9	-0.009401255
35	0x3c57ef5c	0.013179626
36	0xbcc5da83	-0.024152046
37	0xbc501924	-0.0127013065
38	0xbd51eaea	-0.051249422
39	0x3d32d439	0.043659423
40	0xbd0e5b48	-0.03475502
41	0xbbfab7a4	-0.007651286
42	0xbab98036	-0.001415259
43	0x3d0cb435	0.034351546
44	0x3d0e5df6	0.034757577
45	0xbc532c18	-0.012888931
46	0x3cb09c52	0.021558914
47	0xbc2f3f8e	-0.010696305
48	0x3c8b04ce	0.016970064
49	0x3d2d4d4f	0.042310055
50	0x3d332cde	0.04374396
51	0xbcfd0e8f	-0.030890731
52	0x3d0c342a	0.034229435
53	0xbbc490ec	-0.0059987213
54	0x3d04b59c	0.03239976
55	0xbc8d8f73	-0.017280316
56	0x3d1b1a4c	0.037866876
57	0x3b4f354f	0.0031617468
58	0xbc2bbe77	-0.010482422
59	0xbd1159b1	-0.035485927
60	0xbc5e7418	-0.013577484
61	0xbc555ecc	-0.01302309
62	0xbd5dd218	-0.05415544
63	0xbd44d22e	-0.048052005
64	0x3c9e6c16	0.019338649
65	0xbceb6e53	-0.02873913
66	0x3c2d1645	0.0105643915
67	0x3c6fd25b	0.014637555
68	0x3ae747af	0.0017645265
69	0x3ce54ee8	0.027991727
70	0xbcf5b7f7	-0.029994948
71	0x3ca06910	0.019581348
72	0xbc6c8ef3	-0.014438379
73	0xbc277c4a	-0.010222504
74	0xbd488019	-0.04895029
75	0xbd4d176f	-0.050071176
76	0x3c0ff953	0.008787471
77	0x3d05ac98	0.0326353
78	0xbc650225	-0.013977562
79	0xbc955db3	-0.018233156
80	0x3d499bdb	0.0492209
81	0x3d346854	0.044044808
82	0xbcb20d05	-0.021734724
83	0x3d5f0490	0.05444771
84	0xbc6147e1	-0.013750047
85	0xbd4b3b24	-0.049616948
86	0x3b92520f	0.0044653486
87	0x3cb36ff0	0.021903962
88	0x3c315e7c	0.0108257495
89	0xbc97aaed	-0.018514121
90	0x3d243793	0.040092062
91	0x3d382d96	0.04496535
92	0xbb106fcf	-0.00220393
93	0x3cbf5c4f	0.023359446
94	0xbcef9046	-0.0292436
95	0x3ca51d88	0.020155683
96	0x3bb87334	0.0056289677
97	0x3d7358c4	0.059410825
98	0xbd13396b	-0.03594343
99	0x3d1149a4	0.03547062
100	0xbd1910f4	-0.037369683
101	0x3ceea9fa	0.029133786
102	0x3d2cab62	0.04215563
103	0xbd0ee22e	-0.03488367
104	0x3c9cc16b	0.019135198
105	0xbb8b4a55	-0.0042508044
106	0x3d0f91b7	0.035051074
107	0x3d4e7d39	0.05041239
108	0x3cb0e958	0.021595642
109	0x3d0c141c	0.034198865
110	0xbc680b3d	-0.014162836
111	0xbbef664e	-0.007305897
112	0xbcce369f	-0.02517253
113	0xbd3b83fa	-0.04578016
114	0x3d1142dd	0.035464156
115	0x3ccb97d4	0.02485267
116	0xbca8843d	-0.020570869
117	0x3c2d6e4f	0.010585382
118	0xbd2bb398	-0.04191932
119	0x3c3d39da	0.011549437
120	0xbcce536c	-0.025186263
121	0x3d186643	0.0372069
122	0x3be665f1	0.0070311953
123	0x3c03695a	0.008020723
124	0x3c8a4c74	0.016882159
125	0x3c20ab69	0.009806492
126	0xbc9a26d4	-0.018817343
127	0x3ba2c9f3	0.004967922
128	0xbd0e189f	-0.03469145
129	0x3c941e9f	0.018081008
130	0x3c1d7d0f	0.009612336
131	0x3bdce10e	0.006740696
132	0x3d024add	0.031809676
133	0xba811a8f	-0.0009849834
134	0x3d60834c	0.054812714
135	0x3b9d559a	0.0048014643
136	0xbce80599	-0.028322982
137	0x3d22665f	0.03964841
138	0x3c3c387a	0.011488074
139	0x3d38cd09	0.04511741
140	0x3d3e8de4	0.046522036
141	0xbd55fec8	-0.05224493
142	0xbc6f74ea	-0.014615277
143	0x3d4d7701	0.05016232
144	0x3cea5587	0.028605236
145	0x3c9a24bd	0.018816346
146	0xbb7d947c	-0.003869324
147	0x3ca785cc	0.020449542
148	0x3cd5d75f	0.026103674
149	0x3d60bbea	0.05486671
150	0x3c03ecf3	0.008052099
151	0xbd4f635f	-0.050631877
152	0xbcc4abcc	-0.0240077
153	0xbbc6277f	-0.006047189
154	0xbcaa9850	-0.020824581
155	0xbc368821	-0.011140854
156	0x3c6d223e	0.014473496
157	0x3c8d71bf	0.017266152
158	0x3d875ace	0.066091165
159	0x3c11323e	0.008862076
160	0xbcb594ec	-0.022165738
161	0x3c452423	0.012032541
162	0xbd6c0eab	-0.057631176
163	0x3ac06d6d	0.0014681049
164	0x3d56448d	0.05231147
165	0xbcc6f5d7	-0.024287147
166	0xba13542b	-0.0005620147
167	0xbc809af8	-0.015698895
168	0xbc52e4bc	-0.012871917
169	0x3d38efd6	0.0451506
170	0x3d26ba0a	0.040704764
171	0x3d3f5503	0.046711933
172	0x3bde82f0	0.0067905113
173	0x37c2a444	2.3203094e-05
174	0xbc10ff1a	-0.008849883
175	0xbd103118	-0.03520307
176	0xbdbceb63	-0.09224584
177	0xbd52755b	-0.05138145
178	0xbd1aaef7	-0.037764516
179	0xbd531f61	-0.051543597
180	0x3d232c50	0.03983718
181	0x3ce10171	0.027466508
182	0x3c78cc48	0.015185423
183	0xbd441fc7	-0.047881868
184	0x3d19ca98	0.037546724
185	0x3d1a3320	0.037646413
186	0x3c146ee5	0.009059642
187	0xbca0c333	-0.019624328
188	0xbcaddcd3	-0.021223461
189	0x3c47b33d	0.01218873
190	0xbb9654ac	-0.0045877304
191	0xbd041046	-0.032242082
192	0xbcf9dcaa	-0.030500729
193	0x3acbd8cc	0.0015552281
194	0x3cd12daa	0.02553447
195	0xbbe20998	-0.0068981163
196	0xba46dbb0	-0.00075858366
197	0xbcbfc22f	-0.023408024
198	0x3d65098e	0.055917315
199	0x3c4f8a0d	0.012667191
200	0xbbdb355e	-0.0066897115
201	0xbd35c8d3	-0.044380974
202	0xbcd3e5cd	-0.025866413
203	0x3c9b7f16	0.018981498
204	0xbc7aa118	-0.015297197
205	0xbd2c5a5c	-0.04207836
206	0xbd30d365	-0.04317035
207	0xba90102c	-0.0010991148
208	0x3d36e733	0.044654083
209	0xbc4c708f	-0.012478008
210	0x3d1bfe79	0.03808448
211	0x3d3cfcda	0.046139576
212	0x3c4c6af4	0.0124766715
213	0x3c8c390b	0.017117044
214	0x3d7818f0	0.060570657
215	0x3d4e7226	0.05040183
216	0x3d016519	0.031590555
217	0xbbd763be	-0.0065731695
218	0xbc7d16c4	-0.015447322
219	0x3c0122a2	0.007881792
220	0xbc98f217	-0.018670125
221	0x3baae31b	0.0052150614
222	0x3d00a02f	0.031402763
223	0x3c83c942	0.016087178
224	0xbd1ce7d6	-0.038307033
225	0x3cb4dd42	0.02207816
226	0x3cbc6ca1	0.023001017
227	0x3d4133b7	0.04716846
228	0x3d362221	0.04446614
229	0x3d42cbb5	0.04755755
230	0x3cf5f572	0.030024264
231	0xbcb8e769	-0.022571282
232	0xbc2530ef	-0.010082467
233	0x3bda3379	0.006658968
234	0xbcf618bd	-0.030041093
235	0xbcf111c4	-0.029427417
236	0x3ca9b79f	0.02071744
237	0x3d03c292	0.03216798
238	0x3a532b91	0.0008055503
239	0xbc9c485c	-0.019077472
240	0xbbacad14	-0.005269656
241	0x3bec43aa	0.0072102146
242	0xbc37e966	-0.01122508
243	0xbcdc861a	-0.026919413
244	0x3ca35747	0.019939078
245	0x3cd80900	0.026371479
246	0x3bff4816	0.0077905757
247	0x3cce1bef	0.025159804
248	0xbca5ba10	-0.020230323
249	0xbd00305b	-0.031296115
250	0xbd0f2add	-0.034952987
251	0x3c8effc6	0.017455947
252	0xbd10695b	-0.035256725
253	0x3b56267a	0.0032676742
254	0x3b58047d	0.003296166
255	0xba617f88	-0.00086020725

encoder.4.bias f4 [32]
0	0x3d376ad4	0.044779614
1	0xbd1fa0ce	-0.038971715
2	0xbcab57da	-0.020915914
3	0xbd44c315	-0.048037607
4	0x3d32e303	0.043673526
5	0xbd299bb9	-0.041408274
6	0x3c4fb5be	0.012677608
7	0x3d3e1d65	0.04641475
8	0xbd1655a2	-0.03670276
9	0x3c161e23	0.009162459
10	0x3d717995	0.05895384
11	0x3ccb2a28	0.024800375
12	0xbcce57f0	-0.025188416
13	0x3c87f24a	0.016595025
14	0x3cdcbad7	0.02694456
15	0xbc8fc7a7	-0.017551256
16	0x3c4b8f9c	0.012424376
17	0xbaba30c2	-0.0014205205
18	0x3dc2c7e3	0.095107816
19	0x3d5a7bca	0.05334071
20	0xbd1e4036	-0.038635455
21	0x3cf7d3ee	0.030252423
22	0x3c41bab8	0.011824302
23	0x3d6745a9	0.056462917
24	0x3d6a75ab	0.057241123
25	0xbd2335fd	-0.03984641
26	0x3cbb15c3	0.022837525
27	0x3c1cc030	0.009567305
28	0x3d54f55f	0.051991817
29	0x3d828f12	0.06374945
30	0xbd7e3868	-0.062065512
31	0x3d6b07da	0.057380535

fc_mu.weight f4 [8, 480]
0	0xbcf12f2b	-0.029441437
1	0xbb4a45ce	-0.003086436
2	0x3c8d2df6	0.01723383
3	0xbc89f979	-0.01684259
4	0x3d21e6ef	0.039526876
5	0x3c53263c	0.012887534
6	0x3c77f7ad	0.015134734
7	0xbcf17244	-0.029473431
8	0xbcd0b9c2	-0.025479201
9	0x3c8fbc72	0.017545912
10	0xbd3be3c5	-0.045871515
11	0x3d309294	0.043108538
12	0xbd25c728	-0.040473133
13	0x3c658433	0.0140085695
14	0xbd0fbfd5	-0.035095055
15	0x3cb1d616	0.02170853
16	0x3d017b99	0.031612013
17	0xbc9773fc	-0.018487923
18	0xbc72537d	-0.014790413
19	0xbc60cc51	-0.013720588
20	0x3d343713	0.043997835
21	0xbca04ec3	-0.019568807
22	0x3cf0982e	0.02936944
23	0xbcd8fd41	-0.026487948
24	0x3b025c62	0.001989149
25	0xbc804008	-0.015655532
26	0x3cde0222	0.027100626
27	0xbc73bceb	-0.0148765845
28	0xbc80676e	-0.01567432
29	0x3cf9e79a	0.030505944
30	0x3bdb0499	0.0066838977
31	0x3caeec40	0.021352887
32	0x3bf707c6	0.0075387685
33	0x3d86ffdc	0.0659177
34	0x3c0fc05c	0.008773889
35	0xbcd0e308	-0.025498882
36	0x3cab9de6	0.020949315
37	0x3c48f9a6	0.012266552
38	0xbc663931	-0.014051721
39	0xbd0cb697	-0.03435382
40	0xbcaa044e	-0.020754006
41	0xbb31a3a0	-0.0027105585
42	0x3c926b1e	0.017873343
43	0xbc5c3e7e	-0.013442634
44	0x3cf11bf0	0.029432267
45	0xbc9d2a7e	-0.0191853
46	0x3d4fe4a8	0.050755173
47	0xbd263060	-0.040573478
48	0xbc4b8c95	-0.012423654
49	0x3cb764a3	0.022386855
50	0xbc498afc	-0.012301203
51	0xbd061766	-0.03273716
52	0x3cc34692	0.023837361
53	0xbd33bac8	-0.0438793
54	0x3cc3e4a0	0.023912728
55	0x3b2bda2c	0.002622257
56	0x3d197604	0.037466064
57	0xbc8a785d	-0.016903097
58	0xbc0b3938	-0.008497529
59	0x3bd6b0f8	0.006551858
60	0x3d006471	0.03134579
61	0xbc3c5fc6	-0.011497444
62	0x3cce47e4	0.025180764
63	0x3ccb4a85	0.024815807
64	0xbbb076f5	-0.0053852745
65	0xbc37ffc1	-0.01123041
66	0x3af9eb0c	0.0019067242
67	0xbc5d1d76	-0.013495794
68	0xbc448aa6	-0.011995947
69	0xbc400310	-0.01171948
70	0xbcbff820	-0.023433745
71	0xbd180904	-0.037117973
72	0x3c4731a9	0.012157836
73	0x3c8e4201	0.017365457
74	0xbb9dac67	-0.0048118117
75	0xbd423ecc	-0.04742317
76	0xbb104a73	-0.0022017031
77	0x3c94bc69	0.018156247
78	0xbd369f01	-0.04458523
79	0x3ca37c68	0.019956782
80	0x3c9c41e4	0.019074388
81	0xbcd31c7b	-0.025770416
82	0xbce299ab	-0.027661165
83	0xbd1a0c7b	-0.03760956
84	0xbc52c3de	-0.012864081
85	0xbc93710b	-0.017998239
86	0x3d02f090	0.0319677
87	0xbd0b79d5	-0.034051735
88	0x3d03f370	0.032214582
89	0xbd0dd4a0	-0.034626603
90	0x3d0cfdcb	0.034421723
91	0x3c0aaf43	0.008464637
92	0xbcc87ae2	-0.024472658
93	0x3c495642	0.012288632
94	0x3c63b621	0.013898403
95	0xbbdafac1	-0.006682724
96	0x3d35c427	0.04437652
97	0x3bb53305	0.0055297636
98	0xbd20bc32	-0.039241977
99	0xbd023cfd	-0.031796444
100	0xbc8e4961	-0.017368974
101	0xbd09f4fb	-0.033680897
102	0xbca55967	-0.020184232
103	0xba91b820	-0.0011117496
104	0xbcbe22d3	-0.023209965
105	0x3d17c728	0.037055165
106	0xbc5ecf23	-0.01359919
107	0x3ac87024	0.001529221
108	0x3c435128	0.011921205
109	0xbd109b70	-0.035304487
110	0x3ca8f46b	0.02062436
111	0xbd1f039f	-0.038821813
112	0x3d03d620	0.032186627
113	0x3c02a78f	0.007974519
114	0xbb9624c0	-0.0045820177
115	0x3d0f4464	0.03497733
116	0xbc894065	-0.016754339
117	0xbc3e04cb	-0.011597822
118	0x3d02a8e9	0.031899367
119	0x3c99e7fd	0.018787378
120	0xbc3f9965	-0.011694287
121	0x3d2789d3	0.040902924
122	0xbcdabd55	-0.026701609
123	0x3b250abf	0.0025183407
124	0xbbcc40f4	-0.006233329
125	0xbcd7eefc	-0.026359074
126	0x3d167827	0.03673568
127	0x3bb52ab8	0.005528774
128	0x3d130f72	0.0359034
129	0xbbe0a37f	-0.0068554278
130	0xbca78ad8	-0.020451948
131	0xbc96e952	-0.018421803
132	0xbccc92b8	-0.024972305
133	0xbbb9fdc5	-0.0056760036
134	0x3d2e1801	0.04250336
135	0x3d2485bd	0.040166605
136	0x3d3b7abb	0.04577134
137	0xbc177041	-0.009243072
138	0xbd1d90e1	-0.038468245
139	0x3d17a2ea	0.0370206
140	0xbcff0c3a	-0.03113376
141	0xbd2f0f64	-0.042739287
142	0x3ca894d5	0.020578781
143	0x3cd0b2b1	0.025475832
144	0xbcc258bc	-0.023723952
145	0xbc105742	-0.008809866
146	0x3c08560b	0.0083212955
147	0xbc8c8671	-0.01715395
148	0xbbf29d2e	-0.007403991
149	0x3d2d970c	0.042380378
150	0xbd2fad3a	-0.04288981
151	0x3d1002d2	0.03515894
152	0xbcae82e3	-0.021302646
153	0x3be9023f	0.0071108635
154	0xbc98b959	-0.018643068
155	0x3cc220ae	0.023697224
156	0x3c550e84	0.013003949
157	0xb964973e	-0.00021800117
158	0xbca581c7	-0.020203484
159	0xbc9a8c9d	-0.018865878
160	0x3a9ab46f	0.0011803041
161	0xbcf6b54e	-0.03011575
162	0xbd36c535	-0.044621665
163	0x3c88bd44	0.016691811
164	0x3d1f08a2	0.038826592
165	0xbc5cfe6c	-0.013488393
166	0xbcab39ac	-0.020901524
167	0xbc88b79b	-0.016689112
168	0xbce85ae3	-0.02836365
169	0x3d53a66b	0.05167238
170	0xbcc34db1	-0.023840757
171	0xbd49287b	-0.04911087
172	0xbd5b1e68	-0.053495795
173	0x3b89f843	0.0042105033
174	0xbc8757a0	-0.016521275
175	0x3d41172d	0.047141243
176	0xbcb06fc5	-0.02153767
177	0xbd13ebc2	-0.036113508
178	0x3c4b360f	0.012403025
179	0x3d5d8ec4	0.05409123
180	0xbb6f6e14	-0.0036534118
181	0xbc747a80	-0.014921784
182	0x3cf9a32c	0.030473314
183	0x3ad27b35	0.0016058447
184	0x3cc3862d	0.023867691
185	0x3c9b7bbd	0.018979901
186	0xbd00cc85	-0.031445045
187	0x3cefd90c	0.0292783
188	0xbce3fc50	-0.027830273
189	0x3d0939c0	0.03350234
190	0xbd36c773	-0.044623803
191	0x3cd5af59	0.026084589
192	0x3cd62bc2	0.026143912
193	0xbccffaa9	-0.025388079
194	0x3a22e8e3	0.00062145124
195	0x3d0b4710	0.034003317
196	0x3ca3f91d	0.020016247
197	0xbc912cb2	-0.017721508
198	0x3b52693b	0.003210618
199	0x3cc488f2	0.023991082
200	0xbbb8aabe	-0.0056355884
201	0xbcc3a56b	-0.023882588
202	0x3cf876ec	0.030330144
203	0xbd1738ab	-0.036919277
204	0x39f1e792	0.00046139635
205	0x3c49221e	0.012276201
206	0xbcafae83	-0.021445518
207	0x3a558265	0.00081447355
208	0x3cb6ccf6	0.02231453
209	0x3aa4ea0f	0.0012581962
210	0x3c5254c4	0.0128375925
211	0x3d0e355d	0.03471886
212	0x3cbd0d8a	0.023077745
213	0x3d333500	0.043751717
214	0x3afda809	0.0019352447
215	0xbd1e7e71	-0.038694803
216	0x3c5fd72a	0.013662139
217	0xbd5e7f8b	-0.054320853
218	0xbd11a35d	-0.035556186
219	0xbc2ddab0	-0.010611221
220	0xbc3ababa	-0.011397058
221	0x3ce68069	0.028137403
222	0x3c63385f	0.01386842
223	0x3d151bcf	0.036403473
224	0xbd083278	-0.033251256
225	0xbb2f9ff2	-0.0026798216
226	0x3d106b1b	0.035258394
227	0x3c492f68	0.012279369
228	0x3c41410c	0.011795294
229	0x3c09db31	0.008414076
230	0xbd022aff	-0.031779286
231	0xbbe8b112	-0.0071011866
232	0x3d1f50da	0.038895465
233	0x3d2bb579	0.041921113
234	0xbd1ad0ad	-0.037796665
235	0xbd2a3c35	-0.041561324
236	0xbd210fcc	-0.039321706
237	0xbc859fd6	-0.016311567
238	0xbd407b04	-0.046992317
239	0x3cdc3807	0.026882185
240	0x3cb31866	0.02186222
241	0x3d1c8bf5	0.03821941
242	0xbd38d166	-0.045121573
243	0x3cf11418	0.029428527
244	0x3d33001a	0.04370127
245	0x3c3da6c3	0.011575404
246	0x3d1fd604	0.03902246
247	0xbd0146fa	-0.03156183
248	0x3d0c38e3	0.03423394
249	0xbd36e3bb	-0.044650774
250	0xbd0cec60	-0.034405112
251	0xbc7c1838	-0.015386634
252	0xbc2795a1	-0.010228545
253	0xbd073d5f	-0.033017512
254	0x3c34aa61	0.01102695
255	0xbc0d388c	-0.008619439

fc_mu.bias f4 [8]
0	0xbd029e53	-0.03188927
1	0xbd6b65d7	-0.05747017
2	0x3ca66fab	0.02031692
3	0x3d1e209d	0.03860532
4	0xbd9f9c5d	-0.07793496
5	0x3dc299ef	0.09502017
6	0xbd4f3e23	-0.050596368
7	0x3da37c37	0.079826765

fc_log_var.weight f4 [8, 480]
0	0x3ca8dc9a	0.020613004
1	0xbdc5ec53	-0.09664216
2	0xbd3f92ed	-0.04677098
3	0xbd577a6e	-0.052606992
4	0xbc68b720	-0.014203817
5	0xbcbd00f7	-0.02307175
6	0xbdeecc13	-0.11660018
7	0xbd824e4e	-0.06362592
8	0xbdbd8231	-0.09253348
9	0xbdb98e1c	-0.09060308
10	0xbc4d3dc9	-0.012526938
11	0xbde8355b	-0.11338302
12	0xbd736d89	-0.059430633
13	0xbd2836ab	-0.04106776
14	0xbd339fa6	-0.043853424
15	0x3cdd4e99	0.027015017
16	0x3ca2da56	0.019879501
17	0xbd261875	-0.040550668
18	0x3caa8ba7	0.020818545
19	0xbaad2960	-0.0013211183
20	0x3c6d04d4	0.014466483
21	0xbd25f441	-0.04051614
22	0x3ba9bd20	0.005180016
23	0xbcb37603	-0.021906858
24	0xbb842307	-0.004032496
25	0x3d11978e	0.035544924
26	0x3b71ae31	0.0036877508
27	0xbc618aad	-0.013765973
28	0x3d41a1fe	0.04727363
29	0xbd34416b	-0.0440077
30	0xbbe338ab	-0.0069342456
31	0xbd08fd6e	-0.033444814
32	0xbc7c1465	-0.015385722
33	0x3d5da4b4	0.05411215
34	0x3c4ff4d1	0.012692646
35	0xbd1291c3	-0.03578354
36	0xbc4f74aa	-0.012662092
37	0x3d1e8176	0.038697682
38	0x3ca04c89	0.019567745
39	0x3d2bf9a6	0.04198613
40	0xbc1e0906	-0.009645706
41	0x3d0326e7	0.032019522
42	0xbd177bd0	-0.03698331
43	0xbc884ba3	-0.016637629
44	0xbc1f4685	-0.009721403
45	0x3890ea7d	6.910132e-05
46	0x3cb410c4	0.02198065
47	0xbcec4f2e	-0.02884635
48	0x3cdaede2	0.02672476
49	0xbc258992	-0.0101036
50	0x3bb69208	0.0055716075
51	0xba77a10b	-0.00094462995
52	0xbbc85255	-0.0061133304
53	0xbd023313	-0.03178699
54	0x3b23f1ae	0.0025015878
55	0xbd2597c8	-0.040427953
56	0xbc845ed2	-0.016158495
57	0xbd26522c	-0.04060571
58	0xbab94bb2	-0.0014136939
59	0x3bb9c0f6	0.0056687547
60	0xbbe432ff	-0.006964087
61	0xbd612af2	-0.054972596
62	0xbd11b664	-0.035574332
63	0xba0b7aaf	-0.00053207105
64	0xbd4c16ac	-0.04982631
65	0xbcbf761c	-0.023371749
66	0xbcb88456	-0.02252404
67	0xbd35d005	-0.044387836
68	0x3bc3e06c	0.005977681
69	0xbd6aa1be	-0.057283156
70	0xbd0c123f	-0.03419709
71	0x3b26459c	0.002537108
72	0xbd3766f4	-0.044775918
73	0xbc81da5c	-0.015851192
74	0x3cfde452	0.03099266
75	0x3d182d51	0.037152592
76	0x3a893cce	0.0010470392
77	0x3ce104dd	0.02746814
78	0xbd24a93a	-0.04020045
79	0xbd53c752	-0.05170376
80	0x3d15e88b	0.036598723
81	0xbd400b2f	-0.046885666
82	0xbd0b49e5	-0.03400602
83	0xbc5c9e8f	-0.013465538
84	0xbc4b9748	-0.012426205
85	0xbcd9921e	-0.026558932
86	0xbcd618e2	-0.026134912
87	0xbabecb79	-0.0014556489
88	0x3aeb1791	0.00179361
89	0xbcd632ff	-0.026147364
90	0xbd7eca42	-0.062204607
91	0x3ce05260	0.02738303
92	0x3c6be4fe	0.014397858
93	0xbd42a57f	-0.04752111
94	0xbcae2cb5	-0.021261552
95	0x3bc15328	0.0058998056
96	0xbd51cd39	-0.051221106
97	0x3cce983f	0.025219081
98	0xbd25a197	-0.040437307
99	0x3c79ac70	0.015238866
100	0xbd0ad375	-0.033893067
101	0x3ccbe5b5	0.024889806
102	0x3c3cc9eb	0.01152275
103	0xba37e9a5	-0.0007015712
104	0xbd61a90a	-0.05509285
105	0xb9fb37fa	-0.00047916156
106	0xbd16b497	-0.036793318
107	0xbd33e95d	-0.043923724
108	0xbcd1954c	-0.025583886
109	0x3bae7083	0.005323471
110	0xbd53b372	-0.051684804
111	0xbd600420	-0.054691434
112	0xbd89e7ad	-0.06733642
113	0xbc6b45ce	-0.014359904
114	0xbd8be217	-0.068302326
115	0xbd95b912	-0.0731069
116	0xbd96de6a	-0.07366641
117	0xbcb27abb	-0.021787038
118	0xbd2b7b3a	-0.041865565
119	0xbd649a48	-0.055811197
120	0xbb1cd150	-0.002392847
121	0xbc315ac4	-0.010824863
122	0xbd4b79ed	-0.049676824
123	0xbd15a86a	-0.036537565
124	0xbd2a7880	-0.041618824
125	0xbcc77b47	-0.024350775
126	0xbc1da811	-0.00962259
127	0x3cda6971	0.026661607
128	0x3cec4bd2	0.028844748
129	0x3ceec313	0.029145753
130	0xbc217a0f	-0.009855761
131	0xbd4fb8a7	-0.050713208
132	0xbcbf5929	-0.023357945
133	0xbd95dacf	-0.07317125
134	0xbc9f35b1	-0.019434782
135	0xbd0681b6	-0.032838546
136	0xbca14329	-0.019685345
137	0xbc2d0ca5	-0.010562097
138	0x3c72ac2c	0.014811557
139	0x3d0d7e70	0.03454441
140	0x3b4a790c	0.0030894903
141	0xbb5dfdae	-0.0033873129
142	0xbca821fd	-0.02052402
143	0x3b9de530	0.004818581
144	0xbccb4ab6	-0.024815898
145	0xbd96456e	-0.073374614
146	0xbccf327e	-0.025292631
147	0xbdcbb0e3	-0.09945848
148	0xbcd240f0	-0.02566573
149	0xbcc0db7d	-0.02354216
150	0xbd4df4c1	-0.050282244
151	0xbd541fb4	-0.051788047
152	0xbc9d20e8	-0.01918073
153	0xbd1d502f	-0.038406547
154	0xbd2ccbb1	-0.042186443
155	0x3d0357e9	0.03206626
156	0x3ce320ae	0.027725544
157	0xbd2cd81a	-0.042198278
158	0xbd17f842	-0.03710199
159	0xbc2ee83d	-0.010675487
160	0xbd01b2f6	-0.03166481
161	0xbd1d93d5	-0.03847106
162	0xbd2ab3dd	-0.041675437
163	0x3c23b172	0.009991037
164	0xbb078407	-0.002067806
165	0x3cde1390	0.027108938
166	0xbc34b7e7	-0.011030174
167	0xbc0d6a04	-0.008631233
168	0xbc72d51a	-0.014821315
169	0xbd00050a	-0.031254806
170	0xbc73a145	-0.014869993
171	0x3c3f5d59	0.011679971
172	0xbcacc946	-0.021092068
173	0x3cfe92e0	0.031075895
174	0xb985a1e2	-0.0002548835
175	0x3c3af61e	0.011411218
176	0xbd13226a	-0.03592149
177	0x3c1d5022	0.009601625
178	0x3d3cec89	0.046124015
179	0x391f6c34	0.0001520373
180	0x3cb7bc6a	0.02242871
181	0x3cf55c32	0.029951189
182	0x3b8ffcf7	0.0043941694
183	0xbcf4a45a	-0.029863525
184	0x3d412bd4	0.04716094
185	0xbd32c319	-0.04364309
186	0xbd1f1f73	-0.03884835
187	0xbcca6ec0	-0.024711013
188	0x3c0126bb	0.007882769
189	0xbcde02fa	-0.027101029
190	0x3c974e94	0.018470086
191	0xbcd8cb6c	-0.026464187
192	0xbcf5ec33	-0.030019855
193	0x3d40bb54	0.04705365
194	0xbc94e792	-0.018176828
195	0xbd343776	-0.043998204
196	0x3ce26c1d	0.027639443
197	0xbc83a804	-0.016071327
198	0xbcab40a3	-0.020904845
199	0xbd3c06f8	-0.045905083
200	0xbd13f914	-0.03612621
201	0x3c9b7fe0	0.018981874
202	0x3d00b062	0.03141821
203	0x3cd70db9	0.02625166
204	0xbcd6a975	-0.02620385
205	0x3d2c9131	0.042130653
206	0x3ce3efb1	0.027824255
207	0xbd724f2d	-0.05915754
208	0xbd1191cc	-0.035539433
209	0x3d28292a	0.041054882
210	0xbc92b53d	-0.017908687
211	0x3d1d8077	0.03845259
212	0x3c362d6f	0.011119231
213	0x3af65fca	0.0018796858
214	0xbcee20af	-0.02906832
215	0xbd845924	-0.06462315
216	0xbd97c6cc	-0.07410964
217	0xbdc21a80	-0.09477711
218	0xbdaff443	-0.08591511
219	0xbd9c861f	-0.07642769
220	0xbdc87a3b	-0.097889386
221	0x3c1a84f9	0.009431117
222	0x3b07a100	0.0020695329
223	0xbcc79c62	-0.024366561
224	0x3d1f7cb7	0.038937297
225	0x3b235024	0.0024919594
226	0xbda124e2	-0.07868363
227	0xbd142a96	-0.036173426
228	0xbd6c1e03	-0.05764581
229	0xbc954be4	-0.018224664
230	0xbd8f7ab3	-0.07005825
231	0x3c2b2458	0.010445677
232	0xbcd4632a	-0.025926191
233	0xbd9dd616	-0.07706849
234	0xbd109316	-0.035296522
235	0xbda6b60f	-0.08140194
236	0xbd5284fb	-0.05139635
237	0xbdece346	-0.115667865
238	0xbdc151e1	-0.09439445
239	0xbdb64940	-0.0890069
240	0xbc59e92f	-0.013300224
241	0xbd6d77d4	-0.057975605
242	0xbc96b9fb	-0.01839923
243	0x3cd69c6d	0.026197637
244	0xbc8b713b	-0.017021766
245	0x3c94ea3a	0.018178094
246	0xbd8c836c	-0.06861004
247	0xbb9827d1	-0.0046434184
248	0xbd139899	-0.0360342
249	0x38cbef0f	9.7243224e-05
250	0x3a059fa5	0.0005097336
251	0xbced7671	-0.028987141
252	0xbd1756db	-0.036948066
253	0xbd3405f5	-0.043950994
254	0xbb86030c	-0.0040897187
255	0x3b786d00	0.0037906766

fc_log_var.bias f4 [8]
0	0xbd9f0aed	-0.07765756
1	0xbd19078d	-0.037360717
2	0xbd487314	-0.048937872
3	0x3c4d5e40	0.012534678
4	0xbbfe114c	-0.007753527
5	0xbca61fa8	-0.020278767
6	0xbd76246a	-0.06009332
7	0x3c8e62a0	0.017381012

decoder_input.weight f4 [480, 8]
0	0xbeb6d23d	-0.35707274
1	0x3ed8ddc1	0.42356685
2	0x3eca1533	0.394693
3	0x3e460e34	0.19341356
4	0xbe4c4481	-0.19948007
5	0xbe9a0a08	-0.30085778
6	0x3e893309	0.2679675
7	0x3c51ac4a	0.012797425
8	0x3ec7eed9	0.39049414
9	0xbe0a1bb9	-0.13487138
10	0xbe89fcf0	-0.26950788
11	0xbe97df11	-0.29662374
12	0x3e8c2852	0.27374512
13	0xbe6289a4	-0.22122818
14	0x3e29057c	0.16505998
15	0xbe2fcb80	-0.17167473
16	0x3e862cf0	0.2620616
17	0xbd5a2456	-0.05325731
18	0x3e75ff8a	0.24023262
19	0xbe020936	-0.12698826
20	0x3d7e4ac1	0.06208301
21	0x3e7433ae	0.23847839
22	0xbe27776a	-0.16354147
23	0x3ddc5d28	0.10759956
24	0x3da819a4	0.082080156
25	0xbe5f0e46	-0.21782789
26	0x3e1a7e31	0.150872
27	0x3e4095ef	0.18807195
28	0x3e83bf4f	0.25731894
29	0x3eaa8e0f	0.33311507
30	0xbeb85351	-0.36001065
31	0x3e88543c	0.26626766
32	0xbdf96ad5	-0.1217858
33	0x3d58cdb9	0.052930567
34	0xbdc820a8	-0.09771854
35	0xbe992baa	-0.29916126
36	0xbe49bfc9	-0.19702066
37	0x3d5463de	0.051853053
38	0x3daa0dcc	0.08303413
39	0x3ea50259	0.32228354
40	0x3e853e0a	0.26023895
41	0x3d8f7ffc	0.07006833
42	0xbeb3a91d	-0.3508996
43	0x3df7f1bd	0.12106655
44	0x3e0e2b92	0.13883808
45	0x3db31de5	0.08745936
46	0xbd7fecf9	-0.062481854
47	0x3daa4da7	0.08315592
48	0x3e88efb9	0.26745394
49	0x3c2dcff2	0.01060866
50	0x3eaaa3a9	0.33327988
51	0xbe818d50	-0.25303125
52	0xbe936ca5	-0.28793827
53	0xbeadf99f	-0.33979508
54	0xbdec7fe2	-0.11547829
55	0x3a0a1488	0.00052673416
56	0x3ede7a32	0.43452603
57	0xbe8f1fa2	-0.2795382
58	0xbd8dad2e	-0.06917797
59	0xbe149d70	-0.14513183
60	0xbe51e15b	-0.20496123
61	0x3e82456c	0.2544359
62	0xbe242d5b	-0.16032927
63	0xbe997f2c	-0.29979837
64	0xbedbefb0	-0.42956305
65	0xbe92a820	-0.28643894
66	0x3ea3773f	0.31926915
67	0xbe35e8be	-0.17764565
68	0xbec7e98a	-0.39045364
69	0xbe361b0f	-0.1778376
70	0xbeac715b	-0.33680233
71	0x3e42e100	0.19031143
72	0x3e9be893	0.30450878
73	0xbdac55f5	-0.084148325
74	0x3e890cd3	0.26767597
75	0xbe261606	-0.16219339
76	0xbd785182	-0.060624607
77	0xbe5b957b	-0.21443741
78	0x3e70bb3e	0.23508927
79	0xbe941268	-0.28920293
80	0xbe660cdb	-0.22465841
81	0xbe3d7dd2	-0.18505028
82	0x3e2d8038	0.16943443
83	0x3e5aebf9	0.21379079
84	0x3e9f497f	0.3111076
85	0x3d931941	0.07182551
86	0x3d9fc97f	0.07802104
87	0x3bf2df89	0.0074119014
88	0x3d0af2d1	0.033922974
89	0xbe5b1a70	-0.21396804
90	0xbd2b6bd0	-0.041850865
91	0x3e231675	0.15926535
92	0xbe0b2dee	-0.1359174
93	0xbe8b72f1	-0.2723613
94	0x3e6deb10	0.232342
95	0x3e1f6ea0	0.15569544
96	0xbe008784	-0.12551695
97	0x3ea4befb	0.32176957
98	0xbc317974	-0.010832179
99	0x3e84d8b2	0.25946575
100	0x3e90ffba	0.28320104
101	0xbe1e429f	-0.15455101
102	0xbd0f77c6	-0.035026334
103	0xbe9fa46c	-0.3118013
104	0xbe3ddf71	-0.18542267
105	0xbe544789	-0.20730413
106	0xbe2d87ff	-0.1694641
107	0xbe23bb2d	-0.1598937
108	0x3e27f18d	0.16400738
109	0xbe90c4c7	-0.2827513
110	0x3d9b7806	0.07591252
111	0xbd474b5c	-0.048655853
112	0xbe4cd31a	-0.20002404
113	0xbdb19a83	-0.08672049
114	0xbe20db9b	-0.15708773
115	0xbe99bd54	-0.30027258
116	0xbe8f0571	-0.2793384
117	0x3eb78aa2	0.35847956
118	0x3d2cfab8	0.04223129
119	0x3e7bd8c7	0.24594413
120	0x3e6978d9	0.22800006
121	0xbde1f8fc	-0.11033818
122	0x3e6fc94d	0.23416634
123	0xbce39b45	-0.027784
124	0xbe272c07	-0.16325389
125	0xbdcbea0c	-0.0995675
126	0x3e3d9fef	0.18518041
127	0xbe8cde94	-0.27513564
128	0xbe9f07a0	-0.31060505
129	0x3deba3cb	0.115058504
130	0x3d8c6542	0.06855251
131	0x3e6f22ea	0.23353162
132	0xbea4a278	-0.32155204
133	0x3e819ccd	0.25314942
134	0x3e8d8d6a	0.27646953
135	0x3c4ca17b	0.012489672
136	0xbb819864	-0.003954934
137	0xbe5ac32a	-0.21363512
138	0x3dbcc6af	0.092175834
139	0xbdeb5568	-0.11490899
140	0x3e77dbb5	0.24204905
141	0xbe4f621b	-0.20252268
142	0x3d810e2c	0.06301531
143	0x3c99dcf2	0.018782113
144	0xbe27f12d	-0.16400595
145	0xbe8588db	-0.26080975
146	0x3e4a9561	0.19783546
147	0x3c2b0185	0.010437374
148	0x3e946e23	0.28990278
149	0xbe657830	-0.22409129
150	0x3e6ac0e5	0.22925146
151	0x3e95a444	0.29226887
152	0x3d8514da	0.06498118
153	0x3ea742a7	0.3266804
154	0x3e64ea88	0.22355092
155	0x3e60ab9b	0.21940462
156	0xbea2e5b5	-0.31815878
157	0x3d9d20a7	0.076722436
158	0xbdb427db	-0.08796664
159	0x3c568406	0.013093
160	0x3ed530f8	0.41638923
161	0xbe213a15	-0.15744813
162	0xbec6018b	-0.38673052
163	0xbe651cc0	-0.22374249
164	0x3dc63312	0.0967771
165	0xbe5ffe95	-0.21874459
166	0x3e58e878	0.2118243
167	0xbd5ce0c1	-0.05392528
168	0x3eb75cef	0.3581309
169	0x3e693c2d	0.22776861
170	0x3e2eb7fd	0.17062373
171	0x3e631802	0.22177127
172	0x3e2f11f0	0.17096686
173	0x3e9e305c	0.3089627
174	0x3e9073ef	0.2821345
175	0xbe58d17f	-0.21173666
176	0x3e563f89	0.20922674
177	0xbe85949a	-0.26089936
178	0xbe135435	-0.14387591
179	0xbea81ac0	-0.3283291
180	0x3ea01709	0.31267574
181	0x3eb42281	0.35182574
182	0x3e7639d7	0.24045502
183	0x3bc151df	0.0058996524
184	0x3d234426	0.039859913
185	0xbe9cd87a	-0.3063391
186	0xbe93e6e8	-0.28887105
187	0xbe49e287	-0.1971532
188	0x3e91e313	0.28493556
189	0xbbe714ee	-0.0070520556
190	0xb93d4b44	-0.00018052483
191	0x3e24d91c	0.16098446
192	0x3e835835	0.25653234
193	0xbeae731d	-0.340722
194	0x3e816318	0.25270915
195	0xbe3e586e	-0.18588421
196	0x3e3e5d19	0.18590201
197	0x3c823889	0.015896099
198	0x3d2ec985	0.042672653
199	0x3c9acced	0.018896544
200	0xbde73dca	-0.11291082
201	0xbe58c787	-0.21169864
202	0x3e81e3b9	0.2536905
203	0x3ce167e2	0.027515355
204	0x3dd4e0fe	0.10394476
205	0xbdaf08b6	-0.08546583
206	0xbe35b8c2	-0.17746261
207	0xbe796da1	-0.24358226
208	0x3e07e544	0.13271052
209	0xbe446577	-0.19179331
210	0xbebbd814	-0.36688292
211	0xbe3bd98d	-0.18344708
212	0xbe21aa0d	-0.15787525
213	0x3eafb272	0.3431583
214	0xbe854a9b	-0.26033482
215	0xbe501fd5	-0.20324643
216	0x3e468955	0.19388326
217	0xbd001565	-0.031270403
218	0x3e00782e	0.12545845
219	0xbe7fde8e	-0.24987242
220	0xbe514b75	-0.20438941
221	0x3dea98e8	0.11454946
222	0x3e5cf1c9	0.21576609
223	0x3debfb1b	0.11522504
224	0xbe2a9e98	-0.16662061
225	0x3ea353a3	0.31899747
226	0x3ece52d0	0.40297556
227	0x3eba2e4a	0.3636344
228	0x3cda6db0	0.026663631
229	0x3ead0d65	0.33799282
230	0xbeb11c58	-0.34591937
231	0x3e84af3c	0.25914943
232	0x3dd90851	0.10597289
233	0xbe122a5b	-0.1427397
234	0x3e9ba592	0.30399758
235	0xbe65c57f	-0.2243862
236	0xbd97379a	-0.07383652
237	0xbea57519	-0.323159
238	0xbe2f3271	-0.17109086
239	0x3dfe1400	0.124061584
240	0x3ef67dbc	0.48142803
241	0xbe255e4e	-0.16149256
242	0x3d8577db	0.06517001
243	0x3e5447c8	0.20730507
244	0x3e139efb	0.14416115
245	0xbe5e3247	-0.21698867
246	0x3e34f130	0.1767013
247	0xbe240f66	-0.16021499
248	0x3c8adb2f	0.016950218
249	0x3e89c0cb	0.26904902
250	0xbea688b0	-0.3252616
251	0xbb218c05	-0.0024650109
252	0x3ea514de	0.32242483
253	0x3da48b89	0.08034427
254	0x3e3aea9e	0.18253562
255	0x3e87758c	0.2645687
